012demo_barcode-scanner-worker-js-demo/public/models/barcode172_light.tflite (tflite, 259018 bytes, 48 tensors)

functional/mobile_net_v3_small_backbone/bottleneck/activation_2/Relu6;StatefulPartitionedCall/functional/mobile_net_v3_small_backbone/bottleneck/activation_2/Relu6;functional/mobile_net_v3_small_backbone/bottleneck/batch_normalization_2/FusedBatchNormV3;StatefulPartitionedCall/functional/mobile_net_v3_small_backbone/bottleneck/batch_normalization_2/FusedBatchNormV3;functional/mobile_net_v3_small_backbone/bottleneck/depthwise_conv2d/depthwise;StatefulPartitionedCall/functional/mobile_net_v3_small_backbone/bottleneck/depthwise_conv2d/depthwise;functional/mobile_net_v3_small_backbone/bottleneck/depthwise_conv2d/BiasAdd;StatefulPartitionedCall/functional/mobile_net_v3_small_backbone/bottleneck/depthwise_conv2d/BiasAdd;unknown_12 f2 [16]
0	0x3803	0.5015
1	0xb72d	-0.4485
2	0x2d02	0.07825
3	0xb831	-0.524
4	0x3a40	0.7812
5	0x35a2	0.352
6	0xb464	-0.2744
7	0x301b	0.1283
8	0xb861	-0.5474
9	0xa8fd	-0.03897
10	0xad2e	-0.08093
11	0x3a1e	0.7646
12	0xb498	-0.287
13	0x3873	0.556
14	0xaed2	-0.10657
15	0xb7b1	-0.4807

functional/mobile_net_v3_small_backbone/bottleneck_1/activation_4/Relu6;StatefulPartitionedCall/functional/mobile_net_v3_small_backbone/bottleneck_1/activation_4/Relu6;functional/mobile_net_v3_small_backbone/bottleneck_1/batch_normalization_5/FusedBatchNormV3;StatefulPartitionedCall/functional/mobile_net_v3_small_backbone/bottleneck_1/batch_normalization_5/FusedBatchNormV3;functional/mobile_net_v3_small_backbone/bottleneck_1/depthwise_conv2d_1/depthwise;StatefulPartitionedCall/functional/mobile_net_v3_small_backbone/bottleneck_1/depthwise_conv2d_1/depthwise;functional/mobile_net_v3_small_backbone/bottleneck_1/depthwise_conv2d_1/BiasAdd;StatefulPartitionedCall/functional/mobile_net_v3_small_backbone/bottleneck_1/depthwise_conv2d_1/BiasAdd;unknown_34 f2 [72]
0	0xb67b	-0.405
1	0xb8d8	-0.6055
2	0xb6e8	-0.4316
3	0xb7f1	-0.4963
4	0x3767	0.4626
5	0x3150	0.166
6	0xb7de	-0.4917
7	0x34d6	0.3022
8	0x36fa	0.436
9	0x26c3	0.02641
10	0xba24	-0.7676
11	0x3cb8	1.18
12	0x9c97	-0.004482
13	0x341f	0.2576
14	0x34c1	0.297
15	0xb0b6	-0.1472
16	0x3d64	1.348
17	0x3c54	1.082
18	0x9c09	-0.00394
19	0xba8c	-0.8184
20	0xa49a	-0.01797
21	0xa1f1	-0.011604
22	0x9d95	-0.00545
23	0x3700	0.4375
24	0xaa22	-0.0479
25	0xb4fa	-0.311
26	0x2ba7	0.05978
27	0x38c4	0.5957
28	0x35d9	0.3655
29	0xba3d	-0.78
30	0x37b5	0.4817
31	0x9e15	-0.00594
32	0xba27	-0.769
33	0xb2ac	-0.2085
34	0xb67e	-0.4058
35	0xa580	-0.02148
36	0x38dd	0.608
37	0xbb50	-0.914
38	0xb98a	-0.6924
39	0xb201	-0.1876
40	0x3437	0.2634
41	0x3c4d	1.075
42	0xb7bb	-0.4832
43	0xba51	-0.7896
44	0x3a2e	0.7725
45	0xb414	-0.255
46	0xba2d	-0.772
47	0xba27	-0.769
48	0x3835	0.526
49	0x2fef	0.12396
50	0x9c71	-0.004337
51	0x333f	0.2264
52	0x9cc5	-0.004658
53	0x3104	0.1567
54	0x3a3c	0.7793
55	0xb86e	-0.5537
56	0x394e	0.663
57	0x2d7b	0.08563
58	0xbc2e	-1.045
59	0xb9be	-0.718
60	0x3a99	0.8247
61	0x9e3c	-0.00609
62	0x3c36	1.053
63	0xb5f5	-0.3723
64	0xb90d	-0.6313
65	0xa502	-0.01956
66	0x9e71	-0.00629
67	0x39a6	0.706
68	0xb923	-0.642
69	0xba43	-0.7827
70	0xbb6d	-0.928
71	0xb841	-0.5317

functional/mobile_net_v3_small_backbone/bottleneck_2/activation_6/Relu6;StatefulPartitionedCall/functional/mobile_net_v3_small_backbone/bottleneck_2/activation_6/Relu6;functional/mobile_net_v3_small_backbone/bottleneck_2/batch_normalization_8/FusedBatchNormV3;StatefulPartitionedCall/functional/mobile_net_v3_small_backbone/bottleneck_2/batch_normalization_8/FusedBatchNormV3;functional/mobile_net_v3_small_backbone/bottleneck_2/depthwise_conv2d_2/depthwise;StatefulPartitionedCall/functional/mobile_net_v3_small_backbone/bottleneck_2/depthwise_conv2d_2/depthwise;functional/mobile_net_v3_small_backbone/bottleneck_2/depthwise_conv2d_2/BiasAdd;StatefulPartitionedCall/functional/mobile_net_v3_small_backbone/bottleneck_2/depthwise_conv2d_2/BiasAdd;unknown_52 f2 [88]
0	0x3a4c	0.787
1	0xba53	-0.7905
2	0x2bec	0.0619
3	0x3667	0.4001
4	0x393f	0.656
5	0x3662	0.399
6	0x3791	0.473
7	0xba06	-0.753
8	0x346d	0.2766
9	0x2611	0.0237
10	0x2c35	0.06573
11	0xb5ce	-0.3628
12	0x3599	0.3499
13	0x3bad	0.9595
14	0xba77	-0.808
15	0x2fc5	0.1214
16	0x39bc	0.717
17	0xb715	-0.4426
18	0xbabc	-0.842
19	0xb654	-0.3955
20	0xb040	-0.1328
21	0x99ba	-0.002796
22	0xb6fd	-0.4368
23	0x3199	0.1749
24	0x37ab	0.4792
25	0x3b30	0.8984
26	0x370d	0.4407
27	0x2da1	0.08795
28	0xb3c5	-0.2428
29	0x9d37	-0.005093
30	0xb8ef	-0.6167
31	0x2d9f	0.0878
32	0x3392	0.2366
33	0x2d18	0.0796
34	0x39db	0.732
35	0x3171	0.17
36	0x34f2	0.309
37	0xb80b	-0.5054
38	0x3669	0.4006
39	0x39d7	0.73
40	0xbbb3	-0.9624
41	0x31c4	0.1802
42	0xb97c	-0.6855
43	0x2e34	0.0969
44	0xaf16	-0.1107
45	0xbab3	-0.8374
46	0x3595	0.3489
47	0x32f8	0.2178
48	0xb5e3	-0.368
49	0xba84	-0.8145
50	0x3013	0.1273
51	0xb73f	-0.453
52	0x35c5	0.3606
53	0x1c46	0.004173
54	0xb490	-0.2852
55	0x307f	0.1405
56	0xb81d	-0.514
57	0xa504	-0.01959
58	0x336d	0.232
59	0x2fa7	0.11957
60	0x3a50	0.789
61	0x383a	0.5283
62	0x382c	0.5215
63	0xb8d6	-0.6045
64	0x3a6c	0.8027
65	0xba07	-0.7534
66	0xb854	-0.541
67	0x3898	0.574
68	0x38a8	0.582
69	0xb870	-0.5547
70	0x3125	0.1608
71	0xa2e5	-0.013466
72	0xb40f	-0.2537
73	0xb9e9	-0.739
74	0x28c0	0.0371
75	0x38ba	0.591
76	0xb86e	-0.5537
77	0xb669	-0.4006
78	0xa604	-0.0235
79	0xb6b5	-0.4192
80	0x3b6e	0.9287
81	0x3d7c	1.371
82	0xb523	-0.321
83	0xb8d0	-0.6016
84	0x38c3	0.595
85	0xb5f6	-0.3726
86	0xb6fd	-0.4368
87	0x3769	0.4631

functional/mobile_net_v3_small_backbone/bottleneck_3/batch_normalization_11/FusedBatchNormV3;StatefulPartitionedCall/functional/mobile_net_v3_small_backbone/bottleneck_3/batch_normalization_11/FusedBatchNormV3;functional/mobile_net_v3_small_backbone/bottleneck_3/depthwise_conv2d_3/depthwise;StatefulPartitionedCall/functional/mobile_net_v3_small_backbone/bottleneck_3/depthwise_conv2d_3/depthwise;functional/mobile_net_v3_small_backbone/bottleneck_3/depthwise_conv2d_3/BiasAdd;StatefulPartitionedCall/functional/mobile_net_v3_small_backbone/bottleneck_3/depthwise_conv2d_3/BiasAdd;unknown_70 f2 [96]
0	0x377a	0.4673
1	0xb2e0	-0.2148
2	0x3264	0.1997
3	0x34e6	0.3062
4	0x380f	0.5073
5	0xb8ad	-0.5845
6	0x3638	0.3887
7	0xada3	-0.0881
8	0x3308	0.2197
9	0x3b21	0.891
10	0x3688	0.4082
11	0xb6c1	-0.422
12	0x3917	0.636
13	0x346d	0.2766
14	0x3b86	0.9404
15	0xb640	-0.3906
16	0x38d4	0.6035
17	0x3928	0.6445
18	0xb1ae	-0.1775
19	0xaf01	-0.10944
20	0x2e1b	0.0954
21	0xaff1	-0.1241
22	0x390b	0.6304
23	0xb62b	-0.3855
24	0xb7d6	-0.4897
25	0x3a35	0.776
26	0x3408	0.252
27	0xb236	-0.1941
28	0x34ab	0.2917
29	0x38c2	0.5947
30	0xb0f2	-0.1545
31	0x367a	0.4048
32	0xb4fa	-0.311
33	0x3694	0.4111
34	0xb7ee	-0.4956
35	0x38b4	0.588
36	0xb947	-0.6597
37	0x377a	0.4673
38	0xb4a3	-0.2898
39	0xb418	-0.2559
40	0xb0c6	-0.1492
41	0x310d	0.1578
42	0xb4b3	-0.2937
43	0xb4a0	-0.289
44	0x38c9	0.598
45	0xb515	-0.3176
46	0x2e08	0.09424
47	0xb83c	-0.5293
48	0xaabd	-0.05264
49	0xb2fd	-0.2184
50	0xb8c1	-0.594
51	0x2094	0.00894
52	0xb7d5	-0.4895
53	0x360a	0.3774
54	0x3935	0.651
55	0x2ce2	0.0763
56	0x389a	0.575
57	0x3b41	0.9067
58	0x34d2	0.3013
59	0x3394	0.2368
60	0x3985	0.69
61	0xa65a	-0.02481
62	0xb52b	-0.323
63	0x3157	0.1669
64	0xaeef	-0.10834
65	0x36e0	0.4297
66	0x3695	0.4114
67	0xa90b	-0.0394
68	0x3842	0.532
69	0x35db	0.366
70	0x383d	0.53
71	0xb2c4	-0.2114
72	0xb023	-0.1293
73	0x1e01	0.005863
74	0x3976	0.6826
75	0x2f8d	0.118
76	0x3696	0.4116
77	0x34f6	0.31
78	0x36a1	0.4143
79	0x39b0	0.711
80	0x3252	0.1975
81	0xb342	-0.2268
82	0xb391	-0.2365
83	0x3538	0.3262
84	0x352c	0.3232
85	0xb67d	-0.4055
86	0x3b6e	0.9287
87	0x34b4	0.294
88	0xb59f	-0.3513
89	0x38f5	0.6196
90	0x394f	0.6636
91	0xb571	-0.34
92	0xb828	-0.5195
93	0x9cc5	-0.004658
94	0x3295	0.2057
95	0xb5e1	-0.3674

functional/mobile_net_v3_small_backbone/bottleneck_7/batch_normalization_23/FusedBatchNormV3;StatefulPartitionedCall/functional/mobile_net_v3_small_backbone/bottleneck_7/batch_normalization_23/FusedBatchNormV3;functional/mobile_net_v3_small_backbone/bottleneck_7/depthwise_conv2d_7/depthwise;StatefulPartitionedCall/functional/mobile_net_v3_small_backbone/bottleneck_7/depthwise_conv2d_7/depthwise;functional/mobile_net_v3_small_backbone/bottleneck_7/depthwise_conv2d_7/BiasAdd;StatefulPartitionedCall/functional/mobile_net_v3_small_backbone/bottleneck_7/depthwise_conv2d_7/BiasAdd;unknown_92 f2 [144]
0	0xb756	-0.4585
1	0xb45e	-0.273
2	0x3756	0.4585
3	0x36b9	0.4202
4	0x3741	0.4534
5	0x33de	0.2458
6	0x2fb5	0.1204
7	0x3305	0.2194
8	0x3839	0.528
9	0xb43f	-0.2654
10	0x3432	0.2622
11	0xb8a1	-0.5786
12	0xb59f	-0.3513
13	0xb816	-0.5107
14	0xb157	-0.1669
15	0x35f2	0.3716
16	0x381c	0.5137
17	0xb08e	-0.1423
18	0xb6e4	-0.4307
19	0x9c96	-0.00448
20	0xada8	-0.0884
21	0x39b3	0.7124
22	0xb500	-0.3125
23	0xb70c	-0.4404
24	0x363b	0.3894
25	0x376d	0.464
26	0xb398	-0.2373
27	0xb1e4	-0.1841
28	0xb1dc	-0.1831
29	0x34bb	0.2957
30	0x2c84	0.07056
31	0xb1dd	-0.1832
32	0x38b7	0.5894
33	0xb0b4	-0.147
34	0xb1eb	-0.1849
35	0x388d	0.569
36	0xb628	-0.3848
37	0x3908	0.629
38	0xb389	-0.2355
39	0x3628	0.3848
40	0xb25a	-0.1985
41	0x3963	0.6733
42	0xb89c	-0.576
43	0x34fa	0.311
44	0xb5ee	-0.3706
45	0xb685	-0.4075
46	0xb697	-0.4119
47	0xb39b	-0.2377
48	0xb51c	-0.3193
49	0xb414	-0.255
50	0xb45b	-0.2722
51	0x3978	0.6836
52	0x3405	0.2512
53	0x2841	0.03323
54	0x38db	0.607
55	0xb535	-0.3254
56	0x342a	0.2603
57	0xb4cc	-0.2998
58	0x36c1	0.422
59	0xb8c7	-0.597
60	0xad4a	-0.08264
61	0x37c9	0.4866
62	0x36ae	0.4175
63	0x3576	0.3413
64	0x3859	0.5435
65	0xb420	-0.2578
66	0x3b05	0.8774
67	0xb51c	-0.3193
68	0x3926	0.6436
69	0x384d	0.5376
70	0x3707	0.4392
71	0xb317	-0.2216
72	0xb443	-0.2664
73	0x3492	0.2856
74	0xb1ee	-0.1853
75	0x35bb	0.3582
76	0xb504	-0.3135
77	0xaf65	-0.11554
78	0x3819	0.512
79	0xb5a9	-0.3538
80	0xb5da	-0.3657
81	0x37d9	0.4905
82	0xb96c	-0.6777
83	0x371f	0.445
84	0x37c5	0.4856
85	0xb493	-0.286
86	0xb5a0	-0.3516
87	0x34a1	0.2893
88	0xb587	-0.3455
89	0x345a	0.272
90	0x28fe	0.039
91	0x378a	0.4712
92	0x373f	0.453
93	0x3631	0.387
94	0xb02a	-0.1301
95	0x36c4	0.4229
96	0x3919	0.637
97	0x36c0	0.4219
98	0xafdc	-0.1228
99	0xb741	-0.4534
100	0x3955	0.6665
101	0x31e3	0.184
102	0xb4b6	-0.2944
103	0xb7d3	-0.489
104	0xb6ff	-0.4373
105	0x3789	0.471
106	0xb086	-0.1414
107	0x3122	0.1604
108	0x32c3	0.2113
109	0x34c0	0.2969
110	0xb6e6	-0.4312
111	0xb61c	-0.3818
112	0x376e	0.4644
113	0x380e	0.507
114	0x35bf	0.3591
115	0xb5b0	-0.3555
116	0xb8ca	-0.5986
117	0x2347	0.01421
118	0x378f	0.4724
119	0xb539	-0.3264
120	0xb471	-0.2776
121	0x341a	0.2563
122	0xad1f	-0.08
123	0xb498	-0.287
124	0x3535	0.3254
125	0x3a46	0.784
126	0x38ca	0.5986
127	0x36eb	0.4324
128	0xb422	-0.2583
129	0x3176	0.1707
130	0x36f8	0.4355
131	0x3596	0.349
132	0x3809	0.5044
133	0x3680	0.4062
134	0xb8e9	-0.614
135	0x396f	0.679
136	0x3854	0.541
137	0xb7c0	-0.4844
138	0x2c53	0.06757
139	0xb584	-0.3447
140	0x382b	0.521
141	0x3a41	0.7817
142	0x3417	0.2556
143	0x30e3	0.1527

functional/mobile_net_v3_small_backbone/bottleneck/squeeze/dense_1/Add;StatefulPartitionedCall/functional/mobile_net_v3_small_backbone/bottleneck/squeeze/dense_1/Add f2 [16]
0	0x37d5	0.4895
1	0x379c	0.4756
2	0x37f2	0.4966
3	0x37d4	0.4893
4	0x37fa	0.4985
5	0x382d	0.522
6	0x3808	0.504
7	0x37d3	0.489
8	0x37d9	0.4905
9	0x381a	0.5127
10	0x37f8	0.498
11	0x37b8	0.4824
12	0x37fa	0.4985
13	0x3831	0.524
14	0x3819	0.512
15	0x3803	0.5015

functional/mobile_net_v3_small_backbone/bottleneck_3/squeeze_1/dense_3/Add;StatefulPartitionedCall/functional/mobile_net_v3_small_backbone/bottleneck_3/squeeze_1/dense_3/Add f2 [96]
0	0x3812	0.509
1	0x37f3	0.4968
2	0x37ec	0.495
3	0x37d9	0.4905
4	0x37f8	0.498
5	0x37f3	0.4968
6	0x37fa	0.4985
7	0x37ce	0.4878
8	0x37f5	0.4973
9	0x37f4	0.497
10	0x37bb	0.4832
11	0x37df	0.492
12	0x37e6	0.4937
13	0x3809	0.5044
14	0x3805	0.5024
15	0x37db	0.491
16	0x37df	0.492
17	0x380d	0.5063
18	0x37ce	0.4878
19	0x37d9	0.4905
20	0x37fd	0.4993
21	0x37d9	0.4905
22	0x37eb	0.4949
23	0x37ca	0.4868
24	0x37e4	0.4932
25	0x3807	0.5034
26	0x37e6	0.4937
27	0x37ea	0.4946
28	0x37ed	0.4954
29	0x37ca	0.4868
30	0x37d9	0.4905
31	0x37f3	0.4968
32	0x3807	0.5034
33	0x37e2	0.4927
34	0x37f1	0.4963
35	0x3806	0.503
36	0x37f8	0.498
37	0x3802	0.501
38	0x37ec	0.495
39	0x37ea	0.4946
40	0x37e5	0.4934
41	0x37bc	0.4834
42	0x37c8	0.4863
43	0x37b9	0.4827
44	0x37eb	0.4949
45	0x37e5	0.4934
46	0x37f1	0.4963
47	0x37e3	0.493
48	0x37cb	0.487
49	0x37f4	0.497
50	0x37e7	0.494
51	0x37e5	0.4934
52	0x37fe	0.4995
53	0x3800	0.5
54	0x37f4	0.497
55	0x37e5	0.4934
56	0x37f6	0.4976
57	0x3808	0.504
58	0x37db	0.491
59	0x37e4	0.4932
60	0x380b	0.5054
61	0x37d2	0.4888
62	0x37db	0.491
63	0x37e4	0.4932
64	0x37ce	0.4878
65	0x3817	0.511
66	0x37ff	0.4998
67	0x37e0	0.4922
68	0x37ec	0.495
69	0x37e4	0.4932
70	0x3803	0.5015
71	0x37c2	0.4849
72	0x37db	0.491
73	0x37f8	0.498
74	0x37ee	0.4956
75	0x37ee	0.4956
76	0x3805	0.5024
77	0x37e0	0.4922
78	0x3805	0.5024
79	0x3811	0.5083
80	0x3802	0.501
81	0x37f3	0.4968
82	0x37e9	0.4944
83	0x37da	0.4907
84	0x37c6	0.4858
85	0x3803	0.5015
86	0x37fa	0.4985
87	0x37cb	0.487
88	0x37e7	0.494
89	0x3800	0.5
90	0x37f4	0.497
91	0x37e9	0.4944
92	0x3801	0.5005
93	0x37d5	0.4895
94	0x37f0	0.496
95	0x37f3	0.4968

functional/mobile_net_v3_small_backbone/bottleneck_7/squeeze_5/dense_5/Add;StatefulPartitionedCall/functional/mobile_net_v3_small_backbone/bottleneck_7/squeeze_5/dense_5/Add f2 [144]
0	0x37e7	0.494
1	0x37dc	0.4912
2	0x37fc	0.499
3	0x37f7	0.4978
4	0x3808	0.504
5	0x37e9	0.4944
6	0x37e3	0.493
7	0x37de	0.4917
8	0x3816	0.5107
9	0x37db	0.491
10	0x37e7	0.494
11	0x37e9	0.4944
12	0x37d3	0.489
13	0x37e1	0.4924
14	0x37f6	0.4976
15	0x3802	0.501
16	0x37e5	0.4934
17	0x37ef	0.4958
18	0x37e6	0.4937
19	0x37db	0.491
20	0x37ee	0.4956
21	0x3801	0.5005
22	0x37df	0.492
23	0x37f6	0.4976
24	0x37fd	0.4993
25	0x37fc	0.499
26	0x37f7	0.4978
27	0x37db	0.491
28	0x37e4	0.4932
29	0x37de	0.4917
30	0x37d7	0.49
31	0x37e7	0.494
32	0x37ea	0.4946
33	0x37ef	0.4958
34	0x37e6	0.4937
35	0x37e0	0.4922
36	0x37e5	0.4934
37	0x37f5	0.4973
38	0x37e8	0.4941
39	0x37dc	0.4912
40	0x37dc	0.4912
41	0x37f2	0.4966
42	0x37ed	0.4954
43	0x37df	0.492
44	0x37ea	0.4946
45	0x37e9	0.4944
46	0x37f6	0.4976
47	0x37d4	0.4893
48	0x37e7	0.494
49	0x37ee	0.4956
50	0x37e4	0.4932
51	0x37f2	0.4966
52	0x37d9	0.4905
53	0x37e6	0.4937
54	0x37de	0.4917
55	0x37f1	0.4963
56	0x37e5	0.4934
57	0x37ea	0.4946
58	0x37e4	0.4932
59	0x37f1	0.4963
60	0x37d7	0.49
61	0x3811	0.5083
62	0x3801	0.5005
63	0x3807	0.5034
64	0x3801	0.5005
65	0x37e9	0.4944
66	0x3803	0.5015
67	0x37e6	0.4937
68	0x37fc	0.499
69	0x37fc	0.499
70	0x37f0	0.496
71	0x37db	0.491
72	0x37ed	0.4954
73	0x37e9	0.4944
74	0x37e5	0.4934
75	0x37dd	0.4915
76	0x37d9	0.4905
77	0x37e7	0.494
78	0x37e8	0.4941
79	0x37e8	0.4941
80	0x37e2	0.4927
81	0x380b	0.5054
82	0x37eb	0.4949
83	0x37f5	0.4973
84	0x3804	0.502
85	0x37e0	0.4922
86	0x37f7	0.4978
87	0x37c9	0.4866
88	0x37f5	0.4973
89	0x37e5	0.4934
90	0x37d6	0.4897
91	0x3803	0.5015
92	0x37dc	0.4912
93	0x37dd	0.4915
94	0x37d1	0.4885
95	0x380b	0.5054
96	0x37dd	0.4915
97	0x37e5	0.4934
98	0x37e7	0.494
99	0x37fa	0.4985
100	0x37e8	0.4941
101	0x37b2	0.481
102	0x37f1	0.4963
103	0x37f6	0.4976
104	0x37f0	0.496
105	0x381b	0.513
106	0x37de	0.4917
107	0x37e1	0.4924
108	0x37ed	0.4954
109	0x37f9	0.4983
110	0x37ee	0.4956
111	0x37eb	0.4949
112	0x37e4	0.4932
113	0x37eb	0.4949
114	0x37df	0.492
115	0x37db	0.491
116	0x37ef	0.4958
117	0x37ef	0.4958
118	0x37f3	0.4968
119	0x37eb	0.4949
120	0x37d9	0.4905
121	0x37ec	0.495
122	0x37de	0.4917
123	0x37e9	0.4944
124	0x37e2	0.4927
125	0x37f7	0.4978
126	0x37ed	0.4954
127	0x37e8	0.4941
128	0x3803	0.5015
129	0x37d5	0.4895
130	0x37db	0.491
131	0x37e4	0.4932
132	0x3805	0.5024
133	0x37f5	0.4973
134	0x37eb	0.4949
135	0x37ea	0.4946
136	0x37d3	0.489
137	0x37f5	0.4973
138	0x37dc	0.4912
139	0x37f0	0.496
140	0x37f8	0.498
141	0x37e3	0.493
142	0x37f9	0.4983
143	0x37ea	0.4946

unknown_18 f2 [16]
0	0x2ba7	0.05978
1	0x31af	0.1776
2	0x2b7f	0.05856
3	0x29b3	0.04453
4	0x9eb7	-0.006557
5	0x2f6a	0.11584
6	0xa124	-0.01004
7	0x2a86	0.05096
8	0xa927	-0.04025
9	0x21fa	0.01167
10	0x2a1c	0.04773
11	0x2d40	0.08203
12	0x2a25	0.048
13	0x2a6a	0.0501
14	0x2ca0	0.07227
15	0x28be	0.03705

unknown_76 f2 [96]
0	0x2ab2	0.0523
1	0x29e5	0.04605
2	0x24df	0.01903
3	0x292b	0.04037
4	0x2ac0	0.05273
5	0x2289	0.012764
6	0x25f6	0.02328
7	0xa1ba	-0.011185
8	0x28ab	0.03647
9	0x2890	0.03564
10	0x2a11	0.0474
11	0x29f5	0.04654
12	0x1fd4	0.007645
13	0x268c	0.02557
14	0x2116	0.00993
15	0x29a1	0.04398
16	0x25ac	0.02216
17	0x2935	0.04068
18	0x2104	0.009796
19	0x2ac3	0.05283
20	0x2724	0.0279
21	0x0ecb	0.0004146
22	0x287a	0.03497
23	0x2dfb	0.09344
24	0x1f9d	0.007435
25	0x2b55	0.05728
26	0x238a	0.014725
27	0x24b7	0.01842
28	0x29f8	0.04663
29	0x28ef	0.03854
30	0x287d	0.03506
31	0x2c78	0.0698
32	0x288a	0.03546
33	0x2bef	0.06198
34	0x2ac5	0.0529
35	0x2eb4	0.10474
36	0x294b	0.04135
37	0xa114	-0.00992
38	0x27f5	0.03108
39	0x2e50	0.09863
40	0x26ea	0.02701
41	0x2bc3	0.06064
42	0x2982	0.04303
43	0x2797	0.02965
44	0x2a9a	0.05157
45	0x281e	0.03217
46	0x2713	0.02763
47	0x2801	0.03128
48	0x168e	0.0016
49	0x9176	-0.0006666
50	0x2af7	0.0544
51	0x2877	0.03488
52	0x2c76	0.0697
53	0x2b72	0.05817
54	0x2b78	0.05835
55	0x2c47	0.06683
56	0x253c	0.02045
57	0x2745	0.0284
58	0x16ac	0.001629
59	0x2ad4	0.05334
60	0x28bc	0.037
61	0x293d	0.04092
62	0x9ec5	-0.00661
63	0x1e8d	0.006397
64	0xa938	-0.04077
65	0x2c22	0.0646
66	0x2b1d	0.05557
67	0x25f4	0.02325
68	0x2995	0.0436
69	0x296f	0.04245
70	0x2ae7	0.05392
71	0x28b0	0.03662
72	0x2b07	0.0549
73	0x20f7	0.0097
74	0xa0fc	-0.009735
75	0x2836	0.0329
76	0x9aaf	-0.003263
77	0x286f	0.03464
78	0x2efc	0.10913
79	0x20ec	0.00961
80	0x26b4	0.02618
81	0x2578	0.02136
82	0x2305	0.01371
83	0x2c49	0.06696
84	0x258f	0.02171
85	0xa085	-0.00883
86	0x2a31	0.04837
87	0x2c8e	0.07117
88	0x2b64	0.05774
89	0x2c07	0.0629
90	0x298d	0.04337
91	0x2898	0.0359
92	0xa656	-0.02475
93	0x3033	0.1312
94	0x2099	0.00898
95	0x2c72	0.06946

unknown_98 f2 [144]
0	0x2b68	0.05786
1	0x28b6	0.0368
2	0x2dbc	0.0896
3	0x2e68	0.1001
4	0x2728	0.02795
5	0x2a94	0.0514
6	0x2aa9	0.05203
7	0x2376	0.01457
8	0x2c35	0.06573
9	0x21c6	0.01128
10	0x26bc	0.0263
11	0x28bb	0.03696
12	0x29d2	0.04547
13	0x98fb	-0.002432
14	0x2108	0.00983
15	0x291b	0.0399
16	0x2c85	0.0706
17	0x2465	0.01717
18	0x290f	0.03952
19	0x2ad3	0.0533
20	0x22d4	0.013336
21	0x23a1	0.0149
22	0x2e34	0.0969
23	0x29fe	0.0468
24	0x2949	0.0413
25	0x28c1	0.03714
26	0x2d01	0.0782
27	0x265a	0.02481
28	0x9d3a	-0.005104
29	0x2ae0	0.0537
30	0x23f1	0.01551
31	0x2a54	0.04944
32	0xa0a9	-0.0091
33	0x2ea7	0.10394
34	0xa717	-0.0277
35	0x2a4d	0.04922
36	0x26e1	0.02687
37	0x2481	0.0176
38	0x24aa	0.01822
39	0x25b9	0.02235
40	0x2bef	0.06198
41	0x29a2	0.044
42	0xa6fe	-0.02731
43	0x2766	0.0289
44	0x29d8	0.04565
45	0x2ae5	0.05386
46	0x286a	0.0345
47	0x2509	0.01967
48	0xa2b6	-0.01311
49	0x291b	0.0399
50	0x2913	0.03964
51	0x28a4	0.03625
52	0x2c1b	0.06415
53	0x285c	0.03406
54	0x2cc5	0.0745
55	0x2dc3	0.09
56	0x2b25	0.05582
57	0x2812	0.0318
58	0x2a01	0.0469
59	0x2a1f	0.04782
60	0x2c2f	0.06537
61	0x2874	0.0348
62	0x2472	0.01736
63	0x2cf6	0.0775
64	0x2a32	0.0484
65	0x2b9e	0.0595
66	0x2211	0.01185
67	0x27ba	0.03018
68	0x2c49	0.06696
69	0x1c30	0.00409
70	0xa54d	-0.0207
71	0x2d2b	0.08075
72	0x2546	0.0206
73	0x2bfe	0.06244
74	0x1f2a	0.006996
75	0x2c5d	0.0682
76	0x2492	0.01785
77	0x2a81	0.0508
78	0x2641	0.02443
79	0x3019	0.128
80	0x1ecb	0.006634
81	0x2d56	0.0834
82	0x27e2	0.03079
83	0x2942	0.04108
84	0x2ebb	0.10516
85	0x2b1f	0.05563
86	0x28dc	0.03796
87	0x269c	0.02582
88	0x297b	0.04282
89	0x2a0b	0.0472
90	0x2be9	0.0618
91	0x2be7	0.06174
92	0x27fb	0.03117
93	0x28b7	0.03683
94	0x268e	0.0256
95	0x1992	0.00272
96	0x2b4f	0.0571
97	0xa26b	-0.012535
98	0x2b1e	0.0556
99	0x295c	0.04187
100	0x2cc7	0.07465
101	0x29e6	0.04608
102	0x28ee	0.0385
103	0x26cb	0.02654
104	0x2c49	0.06696
105	0x28ea	0.0384
106	0x285f	0.03415
107	0x28bf	0.03708
108	0x241e	0.01608
109	0x2add	0.05362
110	0x2a1a	0.04767
111	0x2848	0.03345
112	0x2935	0.04068
113	0x9519	-0.001245
114	0x1db8	0.005585
115	0x2b9d	0.05948
116	0x2dd7	0.09125
117	0x28a3	0.03622
118	0xa10f	-0.00988
119	0x2948	0.04126
120	0x2c57	0.0678
121	0xa3a0	-0.01489
122	0x2ac4	0.05286
123	0x2d05	0.0784
124	0x2b04	0.0548
125	0x2c08	0.063
126	0x2b4f	0.0571
127	0x2e46	0.098
128	0x2947	0.04123
129	0x2411	0.01588
130	0x278b	0.02946
131	0x29df	0.04587
132	0x288f	0.0356
133	0x274d	0.02852
134	0xa41e	-0.01608
135	0x27e9	0.0309
136	0x2ac1	0.05276
137	0x24a1	0.01808
138	0x297c	0.04285
139	0x295c	0.04187
140	0x260d	0.02364
141	0x2547	0.02061
142	0x24c7	0.01866
143	0x2569	0.02113

functional/mobile_net_v3_small_backbone/bottleneck/conv_block_1/activation_1/Relu6;StatefulPartitionedCall/functional/mobile_net_v3_small_backbone/bottleneck/conv_block_1/activation_1/Relu6;functional/mobile_net_v3_small_backbone/bottleneck/conv_block_1/batch_normalization_1/FusedBatchNormV3;StatefulPartitionedCall/functional/mobile_net_v3_small_backbone/bottleneck/conv_block_1/batch_normalization_1/FusedBatchNormV3;unknown_6;functional/mobile_net_v3_small_backbone/bottleneck/conv_block_1/conv2d_1/BiasAdd;StatefulPartitionedCall/functional/mobile_net_v3_small_backbone/bottleneck/conv_block_1/conv2d_1/BiasAdd;functional/mobile_net_v3_small_backbone/bottleneck/depthwise_conv2d/depthwise;StatefulPartitionedCall/functional/mobile_net_v3_small_backbone/bottleneck/depthwise_conv2d/depthwise;functional/mobile_net_v3_small_backbone/bottleneck/conv_block_1/conv2d_1/Conv2D;StatefulPartitionedCall/functional/mobile_net_v3_small_backbone/bottleneck/conv_block_1/conv2d_1/Conv2D f2 [16]
0	0x3833	0.525
1	0x386e	0.5537
2	0x3842	0.532
3	0xb41d	-0.257
4	0x36a7	0.4158
5	0xaabf	-0.0527
6	0xaf67	-0.11566
7	0xb5da	-0.3657
8	0x38cb	0.599
9	0x2b8c	0.05896
10	0x2c1a	0.0641
11	0x3498	0.287
12	0x35c7	0.361
13	0xb41c	-0.2568
14	0x35b3	0.3562
15	0xb8ba	-0.591

functional/lite_rassp/conv_block_9/activation_11/Relu6;StatefulPartitionedCall/functional/lite_rassp/conv_block_9/activation_11/Relu6;functional/lite_rassp/conv_block_9/batch_normalization_25/FusedBatchNormV3;StatefulPartitionedCall/functional/lite_rassp/conv_block_9/batch_normalization_25/FusedBatchNormV3;unknown_108;functional/lite_rassp/conv_block_9/conv2d_17/BiasAdd;StatefulPartitionedCall/functional/lite_rassp/conv_block_9/conv2d_17/BiasAdd;functional/lite_rassp/conv_block_9/conv2d_17/Conv2D;StatefulPartitionedCall/functional/lite_rassp/conv_block_9/conv2d_17/Conv2D f2 [128]
0	0x3416	0.2554
1	0x3486	0.2827
2	0xb67a	-0.4048
3	0xa901	-0.0391
4	0x9f29	-0.006992
5	0xb998	-0.699
6	0x305b	0.1361
7	0xb02c	-0.1304
8	0x3608	0.377
9	0xb65c	-0.3975
10	0xb907	-0.6284
11	0x2155	0.010414
12	0x3675	0.4036
13	0x2744	0.02838
14	0xa8a7	-0.03635
15	0x3366	0.2312
16	0x32e6	0.2156
17	0xb2e8	-0.2158
18	0x362c	0.3857
19	0x31ca	0.1809
20	0x2f17	0.1108
21	0xb946	-0.659
22	0xb193	-0.1742
23	0xb9c2	-0.7197
24	0xad41	-0.0821
25	0xb932	-0.6494
26	0x347a	0.2798
27	0xa8f4	-0.0387
28	0x3659	0.3967
29	0x37a0	0.4766
30	0xae4a	-0.09827
31	0x38bf	0.5933
32	0x38b0	0.586
33	0xa692	-0.02567
34	0xa59f	-0.02196
35	0x3646	0.392
36	0x344b	0.2683
37	0x32dc	0.2144
38	0x3484	0.2822
39	0xacd9	-0.07574
40	0xa399	-0.01484
41	0x2f84	0.11743
42	0xaf40	-0.1133
43	0xb41a	-0.2563
44	0x2d4b	0.0827
45	0xb12d	-0.1617
46	0x3460	0.2734
47	0x2f60	0.11523
48	0x3056	0.1355
49	0xb7bf	-0.4841
50	0x319b	0.1752
51	0x28cf	0.03757
52	0xb4ea	-0.3071
53	0xb1a1	-0.1759
54	0xb3d6	-0.2449
55	0x3034	0.1313
56	0xb50f	-0.3162
57	0x2c02	0.0626
58	0xaddc	-0.09155
59	0xb9ce	-0.7256
60	0x3597	0.3494
61	0xb016	-0.1277
62	0x2dde	0.0917
63	0x233c	0.01413
64	0x3119	0.1593
65	0xb5e8	-0.3691
66	0x352d	0.3235
67	0xb726	-0.4468
68	0x3565	0.3372
69	0xaf9a	-0.1188
70	0x332f	0.2245
71	0xb4c7	-0.2986
72	0xb839	-0.528
73	0x2ed8	0.10693
74	0xaeef	-0.10834
75	0xb5aa	-0.354
76	0xaacf	-0.0532
77	0xb989	-0.692
78	0xaf45	-0.1136
79	0x2f0a	0.11
80	0xb132	-0.1624
81	0x383e	0.5303
82	0xb2fc	-0.2183
83	0xb599	-0.3499
84	0xb88e	-0.5693
85	0x38d8	0.6055
86	0x2f23	0.1115
87	0xb097	-0.1434
88	0x2b22	0.05573
89	0x31b5	0.1783
90	0xadfb	-0.09344
91	0xa80a	-0.03156
92	0x3053	0.1351
93	0xb0f9	-0.1554
94	0xb9cf	-0.726
95	0x3474	0.2783
96	0x3271	0.2013
97	0x30e6	0.1531
98	0xb6a9	-0.4163
99	0xb34c	-0.228
100	0xbb83	-0.939
101	0x3408	0.252
102	0xadba	-0.0895
103	0xb118	-0.1592
104	0x9caf	-0.004574
105	0xb603	-0.3757
106	0xb302	-0.219
107	0x2e09	0.0943
108	0xb775	-0.466
109	0x3403	0.2507
110	0xb9fb	-0.7476
111	0x2adc	0.0536
112	0x3650	0.3945
113	0x325a	0.1985
114	0xb35c	-0.23
115	0x2d1f	0.08
116	0xae34	-0.0969
117	0x30b1	0.1466
118	0xb145	-0.1647
119	0xb0c9	-0.1495
120	0xb771	-0.465
121	0x2cfe	0.078
122	0x322e	0.1931
123	0x2817	0.03195
124	0xb373	-0.2328
125	0x366e	0.4019
126	0xb5ae	-0.355
127	0xba7e	-0.8115

functional/mobile_net_v3_small_backbone/bottleneck/batch_normalization_2/FusedBatchNormV3;StatefulPartitionedCall/functional/mobile_net_v3_small_backbone/bottleneck/batch_normalization_2/FusedBatchNormV3;functional/mobile_net_v3_small_backbone/bottleneck/depthwise_conv2d/depthwise;StatefulPartitionedCall/functional/mobile_net_v3_small_backbone/bottleneck/depthwise_conv2d/depthwise;functional/mobile_net_v3_small_backbone/bottleneck/depthwise_conv2d/BiasAdd;StatefulPartitionedCall/functional/mobile_net_v3_small_backbone/bottleneck/depthwise_conv2d/BiasAdd;unknown_12 f2 [1, 3, 3, 16]
0	0xb895	-0.5728
1	0x35c3	0.36
2	0xb383	-0.2347
3	0x27f1	0.03102
4	0xbfb3	-1.925
5	0x2ce2	0.0763
6	0x2f03	0.10956
7	0x378b	0.4714
8	0x36e9	0.432
9	0x3887	0.566
10	0x36ac	0.417
11	0xb44c	-0.2686
12	0xb0c9	-0.1495
13	0xb8ea	-0.6143
14	0x3133	0.1625
15	0x2c8f	0.0712
16	0xbb47	-0.9097
17	0x37fe	0.4995
18	0xb90b	-0.6304
19	0x3a9f	0.8276
20	0xbfd4	-1.957
21	0xb4c7	-0.2986
22	0x393d	0.655
23	0x3a95	0.8228
24	0x3866	0.55
25	0x3906	0.628
26	0x3b7b	0.935
27	0x2ccc	0.07495
28	0xa5f6	-0.02328
29	0xb35e	-0.2302
30	0x3db5	1.427
31	0x34ae	0.2925
32	0xb7d7	-0.49
33	0xa161	-0.010506
34	0xb072	-0.1389
35	0x3c01	1.001
36	0xafaa	-0.11975
37	0xb1dc	-0.1831
38	0x3529	0.3225
39	0xba1d	-0.764
40	0x2f83	0.1174
41	0x3062	0.137
42	0xaafb	-0.05453
43	0xb2c4	-0.2114
44	0x39bf	0.7183
45	0xae52	-0.09875
46	0x3cc5	1.192
47	0x3405	0.2512
48	0x3778	0.4668
49	0x3625	0.384
50	0xac3f	-0.06635
51	0xb9da	-0.7314
52	0x3e74	1.613
53	0xb551	-0.3323
54	0x326b	0.2006
55	0xba3b	-0.779
56	0x38db	0.607
57	0x344a	0.268
58	0x39b7	0.7144
59	0xb1f7	-0.1864
60	0xb9f6	-0.745
61	0xba1a	-0.7627
62	0xaea2	-0.10364
63	0x316b	0.1693
64	0xb81f	-0.515
65	0x3728	0.4473
66	0xbb54	-0.916
67	0x3460	0.2734
68	0xb8f9	-0.6216
69	0xb14e	-0.1658
70	0x3d01	1.251
71	0xbc5a	-1.088
72	0x384f	0.5386
73	0x38d6	0.6045
74	0x3756	0.4585
75	0xad3e	-0.0819
76	0x347d	0.2805
77	0xb9c6	-0.7217
78	0x3cea	1.229
79	0x35ba	0.358
80	0xb984	-0.6895
81	0x31e6	0.1843
82	0x3bba	0.966
83	0x3762	0.4614
84	0xbe88	-1.633
85	0x32ba	0.2102
86	0x3ba0	0.953
87	0xb3e0	-0.2461
88	0x2b7c	0.05847
89	0x3779	0.467
90	0x2cb5	0.07355
91	0xb80e	-0.507
92	0x3961	0.6724
93	0xbb02	-0.876
94	0x3e0f	1.515
95	0x323c	0.1948
96	0x3984	0.6895
97	0x2c39	0.066
98	0xa282	-0.01271
99	0xba37	-0.777
100	0x36b3	0.4187
101	0xacf7	-0.0776
102	0xb418	-0.2559
103	0x3942	0.657
104	0x3838	0.5273
105	0xb9b4	-0.713
106	0xbc53	-1.081
107	0xb86d	-0.553
108	0xb636	-0.3882
109	0x2d03	0.0783
110	0x3bde	0.9834
111	0x2f64	0.1155
112	0x362f	0.3865
113	0xb45a	-0.272
114	0xb90f	-0.6323
115	0x3851	0.5396
116	0x3b83	0.939
117	0xb96a	-0.677
118	0x3867	0.5503
119	0x35c2	0.3599
120	0x35eb	0.3699
121	0xbb47	-0.9097
122	0xb9f4	-0.744
123	0xbafd	-0.8735
124	0x2e7c	0.1013
125	0x3631	0.387
126	0xb884	-0.5645
127	0x325b	0.1986
128	0xb7f5	-0.4973
129	0xab74	-0.05823
130	0x3b90	0.9453
131	0xb710	-0.4414
132	0x3852	0.54
133	0x2f2d	0.1121
134	0x3b85	0.94
135	0xb454	-0.2705
136	0xae62	-0.09973
137	0xb97a	-0.6846
138	0xb8fe	-0.624
139	0xb9e5	-0.737
140	0x399e	0.702
141	0x3238	0.1943
142	0xbd98	-1.398
143	0x2e87	0.102

functional/mobile_net_v3_small_backbone/bottleneck/squeeze/dense/MatMul;StatefulPartitionedCall/functional/mobile_net_v3_small_backbone/bottleneck/squeeze/dense/MatMul f2 [16, 16]
0	0xb5cf	-0.363
1	0x3699	0.4124
2	0x30f6	0.155
3	0xb42f	-0.2615
4	0x369a	0.4126
5	0x37c3	0.485
6	0xb337	-0.2255
7	0x360e	0.3784
8	0x35b7	0.3572
9	0xb0b3	-0.1469
10	0xb0b6	-0.1472
11	0x34ca	0.2993
12	0xb7b9	-0.4827
13	0xafac	-0.1199
14	0x3338	0.2256
15	0xb220	-0.1914
16	0x2c66	0.0687
17	0x34e0	0.3047
18	0x2a67	0.05002
19	0x2dc9	0.0904
20	0xb4c4	-0.2979
21	0xabc2	-0.0606
22	0x38bc	0.592
23	0xb228	-0.1924
24	0x380b	0.5054
25	0x2f4a	0.1139
26	0xb210	-0.1895
27	0xaf03	-0.10956
28	0x32e5	0.2155
29	0x3357	0.2294
30	0xa9ac	-0.0443
31	0xb590	-0.3477
32	0xb375	-0.233
33	0x2f50	0.11426
34	0xa5b9	-0.02235
35	0xb42b	-0.2605
36	0x323a	0.1946
37	0xb511	-0.3167
38	0x349c	0.288
39	0xa4a0	-0.01807
40	0x2b4b	0.05698
41	0xb30c	-0.2202
42	0x2a13	0.04745
43	0xb4b8	-0.295
44	0x34af	0.2927
45	0x306b	0.1381
46	0xb439	-0.264
47	0x3291	0.2052
48	0x3409	0.2522
49	0x29ab	0.04428
50	0xb3f8	-0.249
51	0x365d	0.3977
52	0xb43c	-0.2646
53	0xb4f4	-0.3096
54	0xb44e	-0.269
55	0x2940	0.04102
56	0x2a19	0.04764
57	0xb572	-0.3403
58	0x3689	0.4084
59	0x321c	0.1909
60	0xa2cc	-0.013275
61	0x3406	0.2515
62	0xb18d	-0.1735
63	0x332f	0.2245
64	0x321b	0.1908
65	0xb102	-0.1565
66	0xb2c8	-0.2119
67	0xb020	-0.1289
68	0x34f8	0.3105
69	0xb454	-0.2705
70	0xb226	-0.1921
71	0xb488	-0.2832
72	0x2e9f	0.10345
73	0x320f	0.1893
74	0xb318	-0.2217
75	0xb1f7	-0.1864
76	0x34b7	0.2947
77	0x2e88	0.10205
78	0xb668	-0.4004
79	0xa109	-0.009834
80	0x2ed7	0.1069
81	0xb2d6	-0.2136
82	0xb13f	-0.164
83	0x355f	0.3357
84	0x354c	0.331
85	0x1dd1	0.00568
86	0x340f	0.2537
87	0xb37a	-0.2336
88	0x32f4	0.2173
89	0x3489	0.2834
90	0xb08d	-0.1422
91	0xaf4c	-0.114
92	0x31b4	0.1782
93	0xb42c	-0.2607
94	0x32e7	0.2157
95	0x3449	0.2678
96	0x309a	0.1438
97	0xa913	-0.03964
98	0x2e13	0.0949
99	0x341c	0.2568
100	0xb42c	-0.2607
101	0xb1c8	-0.1807
102	0xb50b	-0.3152
103	0x35ca	0.3618
104	0xa01c	-0.008026
105	0x3454	0.2705
106	0x35cf	0.363
107	0x30e3	0.1527
108	0xae5d	-0.0994
109	0x35f0	0.371
110	0x30e0	0.1523
111	0xb5f2	-0.3716
112	0x3635	0.388
113	0x3332	0.2249
114	0xb636	-0.3882
115	0xb183	-0.1722
116	0x373f	0.453
117	0x345c	0.2725
118	0x35f3	0.3718
119	0x30a7	0.1454
120	0x34d9	0.303
121	0x3589	0.346
122	0x2c92	0.0714
123	0x351e	0.3198
124	0xac28	-0.06494
125	0x3564	0.337
126	0xaa7e	-0.05072
127	0xaafb	-0.05453
128	0xb60b	-0.3777
129	0x341e	0.2573
130	0x9a0b	-0.00295
131	0x3169	0.1691
132	0x306e	0.1384
133	0xb6f9	-0.4358
134	0xb641	-0.3909
135	0x332d	0.2242
136	0x342c	0.2607
137	0x324f	0.1971
138	0xb638	-0.3887
139	0xb622	-0.3833
140	0xaea2	-0.10364
141	0x2afc	0.05457
142	0xb376	-0.2332
143	0xb471	-0.2776
144	0xaa0a	-0.04718
145	0x3843	0.5327
146	0x3798	0.4746
147	0x2f3f	0.1132
148	0x3419	0.256
149	0x325a	0.1985
150	0xac8b	-0.071
151	0xaec9	-0.106
152	0x3509	0.3147
153	0x35bd	0.3586
154	0xb495	-0.2864
155	0xa5fb	-0.02336
156	0xa8e7	-0.0383
157	0x315d	0.1676
158	0x2838	0.03296
159	0x304c	0.1343
160	0x3594	0.3486
161	0x354e	0.3315
162	0x2999	0.04373
163	0xb203	-0.1879
164	0xb369	-0.2316
165	0x3025	0.1295
166	0xb7ae	-0.48
167	0xb5d3	-0.364
168	0xb68e	-0.4097
169	0xb0fc	-0.1558
170	0x300c	0.1265
171	0x37d6	0.4897
172	0x2eaa	0.1041
173	0xadea	-0.0924
174	0xb071	-0.1388
175	0xb506	-0.314
176	0x29b1	0.04446
177	0xafa4	-0.1194
178	0x347b	0.28
179	0x3594	0.3486
180	0x2cc8	0.0747
181	0x3801	0.5005
182	0x30f4	0.1548
183	0x36ee	0.433
184	0x319d	0.1754
185	0x2f7b	0.1169
186	0xb4d0	-0.3008
187	0x3759	0.4592
188	0xad08	-0.0786
189	0xb55f	-0.3357
190	0xb2ca	-0.2122
191	0xb745	-0.4543
192	0x375d	0.4602
193	0x340b	0.2527
194	0x2e0f	0.09467
195	0xb1c3	-0.18
196	0x34f0	0.3086
197	0x375e	0.4604
198	0x2c51	0.06744
199	0x343f	0.2654
200	0xb1fe	-0.1873
201	0xb649	-0.3928
202	0x315e	0.1677
203	0xa8a4	-0.03625
204	0xb503	-0.3132
205	0x2d56	0.0834
206	0xae13	-0.0949
207	0xb302	-0.219
208	0x3155	0.1666
209	0x32e5	0.2155
210	0xb4a5	-0.2903
211	0xb28b	-0.2045
212	0xb227	-0.1923
213	0xac23	-0.06464
214	0x2be0	0.06152
215	0x3551	0.3323
216	0x2d4c	0.08276
217	0xb123	-0.1605
218	0x3600	0.375
219	0x3866	0.55
220	0x334c	0.228
221	0xb0f3	-0.1547
222	0xb509	-0.3147
223	0xb430	-0.2617
224	0x35ac	0.3545
225	0x3600	0.375
226	0x37ad	0.4797
227	0xb134	-0.1626
228	0x32f9	0.2179
229	0xb2da	-0.2141
230	0x28bc	0.037
231	0xa688	-0.02551
232	0xa310	-0.013794
233	0x2d9c	0.08765
234	0x2c8a	0.0709
235	0xa5df	-0.02293
236	0x2def	0.0927
237	0xb5dd	-0.3665
238	0x3668	0.4004
239	0x34bf	0.2966
240	0x3668	0.4004
241	0xb6ba	-0.4204
242	0xb467	-0.2751
243	0x360e	0.3784
244	0x36ae	0.4175
245	0xb53e	-0.3276
246	0x3230	0.1934
247	0x3725	0.4465
248	0xb469	-0.2756
249	0xb25c	-0.1987
250	0x21df	0.01147
251	0x3583	0.3445
252	0xb072	-0.1389
253	0xb608	-0.377
254	0x342a	0.2603
255	0x3920	0.6406

functional/mobile_net_v3_small_backbone/bottleneck_1/batch_normalization_5/FusedBatchNormV3;StatefulPartitionedCall/functional/mobile_net_v3_small_backbone/bottleneck_1/batch_normalization_5/FusedBatchNormV3;functional/mobile_net_v3_small_backbone/bottleneck_1/depthwise_conv2d_1/depthwise;StatefulPartitionedCall/functional/mobile_net_v3_small_backbone/bottleneck_1/depthwise_conv2d_1/depthwise;functional/mobile_net_v3_small_backbone/bottleneck_1/depthwise_conv2d_1/BiasAdd;StatefulPartitionedCall/functional/mobile_net_v3_small_backbone/bottleneck_1/depthwise_conv2d_1/BiasAdd;unknown_34 f2 [1, 3, 3, 72]
0	0x3902	0.626
1	0x344d	0.2688
2	0x3da9	1.415
3	0x3008	0.126
4	0xb6c7	-0.4236
5	0xbd77	-1.366
6	0x35ac	0.3545
7	0x35d9	0.3655
8	0xba77	-0.808
9	0x32c5	0.2115
10	0x3042	0.133
11	0xbc45	-1.067
12	0xa5a7	-0.02208
13	0x3486	0.2827
14	0x3360	0.2305
15	0x3829	0.52
16	0xb68c	-0.4092
17	0x3676	0.4038
18	0x2343	0.01418
19	0x30f1	0.1544
20	0xbc58	-1.086
21	0x3605	0.3762
22	0xae4c	-0.0984
23	0x30b7	0.1473
24	0xbb30	-0.8984
25	0x36b5	0.4192
26	0xb94a	-0.661
27	0xbac5	-0.846
28	0xb4d7	-0.3025
29	0xb99b	-0.7007
30	0xac15	-0.0638
31	0xb473	-0.278
32	0x3c3c	1.059
33	0x3e78	1.617
34	0xb1f4	-0.186
35	0xb752	-0.4575
36	0xb9d7	-0.73
37	0xb874	-0.5566
38	0x2ee4	0.10767
39	0x0d34	0.0003176
40	0xb61a	-0.3813
41	0xb065	-0.1373
42	0xb89f	-0.5776
43	0x347e	0.2808
44	0xb448	-0.2676
45	0xa95b	-0.04184
46	0x388b	0.568
47	0xb152	-0.1663
48	0x3333	0.225
49	0x34e4	0.3057
50	0x37fc	0.499
51	0x2e51	0.0987
52	0x389d	0.5767
53	0x3b57	0.9175
54	0x981c	-0.002007
55	0x342c	0.2607
56	0x30e2	0.1526
57	0xa3c5	-0.015175
58	0x3371	0.2325
59	0x3483	0.282
60	0xb8a1	-0.5786
61	0xbacd	-0.85
62	0xb52c	-0.3232
63	0x9e50	-0.006165
64	0x31e4	0.1841
65	0xafa6	-0.1195
66	0xb883	-0.564
67	0x3401	0.2502
68	0x389d	0.5767
69	0xa9ff	-0.04684
70	0xb0ca	-0.1497
71	0x30b5	0.1471
72	0x3a49	0.7856
73	0x33f4	0.2485
74	0x3ea7	1.663
75	0xb107	-0.1571
76	0xb099	-0.1437
77	0xb6d0	-0.4258
78	0x34d0	0.3008
79	0xbb95	-0.9478
80	0xb659	-0.3967
81	0x38d0	0.6016
82	0x3529	0.3225
83	0xb074	-0.1392
84	0x3d2a	1.291
85	0xbc1b	-1.026
86	0x3989	0.692
87	0x3c1a	1.025
88	0x37bd	0.4836
89	0xb491	-0.2854
90	0xb93b	-0.654
91	0x365e	0.398
92	0x3813	0.5093
93	0xb5e2	-0.3677
94	0x352c	0.3232
95	0xb74d	-0.4563
96	0xb999	-0.6997
97	0xb18c	-0.1733
98	0x33d5	0.2448
99	0xba85	-0.815
100	0xb4f5	-0.3098
101	0xb80e	-0.507
102	0xbd36	-1.303
103	0xad86	-0.0863
104	0x3c7b	1.12
105	0x39da	0.7314
106	0x3895	0.5728
107	0xbac9	-0.848
108	0x35a2	0.352
109	0x3a93	0.822
110	0xb02f	-0.1307
111	0xb6ea	-0.4321
112	0x30fd	0.1559
113	0xb78d	-0.472
114	0x38cb	0.599
115	0x3a15	0.7603
116	0xb760	-0.461
117	0x2dbb	0.08954
118	0x384a	0.536
119	0x3499	0.2874
120	0xb402	-0.2505
121	0xb67a	-0.4048
122	0x3931	0.649
123	0xb1ce	-0.1814
124	0xb7fa	-0.4985
125	0xbb7f	-0.937
126	0x33ee	0.2478
127	0x3794	0.4736
128	0x2f04	0.1096
129	0x2ddf	0.09174
130	0x3903	0.6265
131	0x30a5	0.1451
132	0xb3e5	-0.2467
133	0x3abc	0.842
134	0xb2a2	-0.2073
135	0x37ff	0.4998
136	0x3385	0.235
137	0x3097	0.1434
138	0x39c0	0.7188
139	0x365e	0.398
140	0x31ad	0.1774
141	0x3829	0.52
142	0x2ce3	0.07635
143	0x3451	0.2698
144	0xb564	-0.337
145	0x33b7	0.2411
146	0xbb21	-0.891
147	0x30e8	0.1533
148	0x2fbe	0.121
149	0x31ac	0.1772
150	0x305e	0.1365
151	0xae3d	-0.0975
152	0xb609	-0.3772
153	0x38d5	0.604
154	0x3497	0.2869
155	0xb84e	-0.538
156	0xbcdd	-1.216
157	0x2755	0.02864
158	0x39a7	0.7065
159	0xbc9a	-1.15
160	0xb6c5	-0.423
161	0xa2ae	-0.01305
162	0xb701	-0.4377
163	0x34ee	0.308
164	0x3923	0.642
165	0xba5c	-0.795
166	0xb6aa	-0.4165
167	0xa204	-0.01175
168	0x3cde	1.217
169	0xb257	-0.1981
170	0xb232	-0.1936
171	0xaec8	-0.10596
172	0xb68b	-0.409
173	0x390d	0.6313
174	0x2cb3	0.0734
175	0x39af	0.7104
176	0x28fd	0.03897
177	0xbbca	-0.9736
178	0x341b	0.2566
179	0xb846	-0.534
180	0x38ee	0.616
181	0xb485	-0.2825
182	0x362c	0.3857
183	0x2e66	0.1
184	0x33a1	0.2384
185	0x336d	0.232
186	0xaee7	-0.10785
187	0x3631	0.387
188	0x9e02	-0.005867
189	0x2584	0.02155
190	0x32ef	0.2167
191	0x3134	0.1626
192	0xb918	-0.6367
193	0x9dd7	-0.005703
194	0x3931	0.649
195	0xa47b	-0.0175
196	0xb854	-0.541
197	0x3128	0.1611
198	0xb31a	-0.2219
199	0x383e	0.5303
200	0xb5dc	-0.3662
201	0x39ef	0.7417
202	0x3454	0.2705
203	0xb25e	-0.199
204	0xb735	-0.4504
205	0xb977	-0.683
206	0x2d26	0.08044
207	0xa780	-0.0293
208	0xb035	-0.1315
209	0x3b6e	0.9287
210	0xb9b1	-0.7114
211	0x30e6	0.1531
212	0xa961	-0.04202
213	0x3bce	0.9756
214	0x3348	0.2275
215	0xad97	-0.08734
216	0xaa9c	-0.05164
217	0x3931	0.649
218	0x38c1	0.594
219	0xb363	-0.2308
220	0x3780	0.4688
221	0xb59b	-0.3503
222	0xa194	-0.010895
223	0xba14	-0.76
224	0xb727	-0.447
225	0xb476	-0.2788
226	0x8ae4	-0.0002103
227	0xafb1	-0.1202
228	0x38b3	0.5874
229	0x3496	0.2866
230	0xb978	-0.6836
231	0x2fea	0.12366
232	0xb8c6	-0.5967
233	0xbd7b	-1.37
234	0x367d	0.4055
235	0xaf07	-0.1098
236	0x3f1b	1.776
237	0x35c5	0.3606
238	0x3501	0.3127
239	0x3187	0.1727
240	0xbb5b	-0.9194
241	0x35d0	0.3633
242	0xba35	-0.776
243	0x3074	0.1392
244	0xb988	-0.6914
245	0x35d7	0.365
246	0x2806	0.03143
247	0x3c03	1.003
248	0x9c8d	-0.004444
249	0x394b	0.6616
250	0x36b9	0.4202
251	0xb499	-0.2874
252	0xaabf	-0.0527
253	0x3977	0.683
254	0x3594	0.3486
255	0xba21	-0.766

functional/mobile_net_v3_small_backbone/bottleneck_2/batch_normalization_8/FusedBatchNormV3;StatefulPartitionedCall/functional/mobile_net_v3_small_backbone/bottleneck_2/batch_normalization_8/FusedBatchNormV3;functional/mobile_net_v3_small_backbone/bottleneck_2/depthwise_conv2d_2/depthwise;StatefulPartitionedCall/functional/mobile_net_v3_small_backbone/bottleneck_2/depthwise_conv2d_2/depthwise;functional/mobile_net_v3_small_backbone/bottleneck_2/depthwise_conv2d_2/BiasAdd;StatefulPartitionedCall/functional/mobile_net_v3_small_backbone/bottleneck_2/depthwise_conv2d_2/BiasAdd;unknown_52 f2 [1, 3, 3, 88]
0	0xb55a	-0.3345
1	0xb9c4	-0.7207
2	0xb793	-0.4734
3	0x3641	0.3909
4	0xb1fd	-0.1871
5	0x34a8	0.291
6	0xbc40	-1.0625
7	0x2e2f	0.0966
8	0x3df7	1.491
9	0x3a1f	0.765
10	0xb8ac	-0.584
11	0xb81f	-0.515
12	0x3576	0.3413
13	0x36cc	0.4248
14	0x382d	0.522
15	0x2bf5	0.06216
16	0xb6f6	-0.435
17	0x3839	0.528
18	0x3a83	0.814
19	0xbb43	-0.9077
20	0x3824	0.5176
21	0x3a08	0.754
22	0xb537	-0.326
23	0xb4ab	-0.2917
24	0xacbb	-0.0739
25	0xb0c0	-0.1484
26	0xb289	-0.2042
27	0xb693	-0.411
28	0xb800	-0.5
29	0xa928	-0.04028
30	0xb2e8	-0.2158
31	0xbb8d	-0.944
32	0x33bd	0.2418
33	0xbd99	-1.399
34	0xbaad	-0.8345
35	0x2f10	0.11035
36	0xa8e0	-0.0381
37	0xaf42	-0.1134
38	0xafe4	-0.1233
39	0xb876	-0.5576
40	0xb67e	-0.4058
41	0x36fc	0.4365
42	0x305a	0.136
43	0xa63d	-0.02437
44	0x2ddf	0.09174
45	0xad6e	-0.08484
46	0xbab4	-0.838
47	0xb8ee	-0.616
48	0xb3a0	-0.2383
49	0x3976	0.6826
50	0xb780	-0.4688
51	0x2b2d	0.05606
52	0x3731	0.4495
53	0x377b	0.4675
54	0xb387	-0.2352
55	0xb2fe	-0.2185
56	0x3c71	1.11
57	0xb76e	-0.4644
58	0xbb28	-0.8945
59	0x28db	0.03793
60	0xb08d	-0.1422
61	0x2fa1	0.1192
62	0xb656	-0.396
63	0x3747	0.4548
64	0xafea	-0.12366
65	0xb2e5	-0.2155
66	0x3e70	1.609
67	0x30a2	0.1448
68	0xa774	-0.02911
69	0xa46a	-0.01724
70	0x307b	0.14
71	0xbb76	-0.9326
72	0xaa58	-0.04956
73	0x2c8e	0.07117
74	0x36c6	0.4233
75	0xbaa2	-0.829
76	0x3350	0.2285
77	0x33de	0.2458
78	0x348d	0.2844
79	0xaba0	-0.05957
80	0xb6c5	-0.423
81	0x3451	0.2698
82	0x22af	0.013054
83	0xb7c6	-0.4858
84	0xb2e5	-0.2155
85	0xbb7c	-0.9355
86	0x353c	0.3271
87	0x34ca	0.2993
88	0xb865	-0.5493
89	0xb7b0	-0.4805
90	0xb645	-0.3918
91	0x3636	0.3882
92	0x35c6	0.3608
93	0x3b64	0.924
94	0xb9d7	-0.73
95	0x3649	0.3928
96	0xb82f	-0.523
97	0x2de6	0.09216
98	0x279e	0.02975
99	0x2eb7	0.1049
100	0xbbbb	-0.9663
101	0xb08f	-0.1425
102	0x339a	0.2375
103	0x39a1	0.7036
104	0xa868	-0.03442
105	0x2c96	0.07166
106	0x2886	0.03534
107	0x3543	0.3289
108	0xb24c	-0.1968
109	0x35c5	0.3606
110	0x39b3	0.7124
111	0xb953	-0.6655
112	0x32ef	0.2167
113	0x3a30	0.7734
114	0xb7fb	-0.4988
115	0xb885	-0.565
116	0xa8ab	-0.03647
117	0xafb5	-0.1204
118	0x316e	0.1697
119	0xb8fd	-0.6235
120	0x3968	0.676
121	0xa4a3	-0.01811
122	0xb7eb	-0.4949
123	0x215d	0.010475
124	0x39da	0.7314
125	0x3b73	0.931
126	0xb969	-0.6763
127	0xaee4	-0.10767
128	0x3bbc	0.967
129	0x38c5	0.596
130	0x2b54	0.05725
131	0x3a8d	0.819
132	0xb7a6	-0.478
133	0x3926	0.6436
134	0x34d9	0.303
135	0x9bd7	-0.003828
136	0x2ba3	0.05966
137	0x3413	0.2546
138	0x32d0	0.2129
139	0x3b92	0.9463
140	0x29c4	0.04504
141	0x3bd6	0.9795
142	0x356d	0.339
143	0x3a2d	0.772
144	0xb53a	-0.3267
145	0xbd37	-1.304
146	0x3628	0.3848
147	0x3bfa	0.997
148	0x3293	0.2054
149	0xb579	-0.342
150	0xaed6	-0.1068
151	0x3c6d	1.106
152	0x346a	0.276
153	0x3bde	0.9834
154	0x3cd3	1.206
155	0xa16e	-0.010605
156	0x353c	0.3271
157	0xb6e8	-0.4316
158	0xb4ae	-0.2925
159	0xac81	-0.0704
160	0x3be6	0.9873
161	0xb949	-0.6606
162	0xbdef	-1.483
163	0xaa7f	-0.05075
164	0x276c	0.02899
165	0x381a	0.5127
166	0x37e4	0.4932
167	0xb9e6	-0.7373
168	0xb34c	-0.228
169	0xbd99	-1.399
170	0x395b	0.6694
171	0x226b	0.012535
172	0xa007	-0.007866
173	0x323a	0.1946
174	0xbb62	-0.923
175	0xbbbc	-0.967
176	0xb84d	-0.5376
177	0x2276	0.01262
178	0xbb13	-0.8843
179	0x2cf1	0.0772
180	0x30da	0.1516
181	0x36d3	0.4265
182	0xacda	-0.0758
183	0x28af	0.0366
184	0x3c49	1.071
185	0xb6ff	-0.4373
186	0xba27	-0.769
187	0x39b3	0.7124
188	0x2d96	0.0873
189	0xa898	-0.0359
190	0x34db	0.3035
191	0x3938	0.6523
192	0x3240	0.1953
193	0xbabb	-0.8413
194	0x29d1	0.04544
195	0x269f	0.02586
196	0x349d	0.2883
197	0x3530	0.3242
198	0xb899	-0.5747
199	0x3935	0.651
200	0xb7df	-0.492
201	0x3951	0.6646
202	0xb6bf	-0.4216
203	0xbc40	-1.0625
204	0xadeb	-0.09247
205	0xb854	-0.541
206	0xa448	-0.01672
207	0x3c0f	1.015
208	0x38c8	0.5977
209	0x3aa0	0.828
210	0x313d	0.1637
211	0x3595	0.3489
212	0x39fc	0.748
213	0xada8	-0.0884
214	0x2a39	0.0486
215	0xb63b	-0.3894
216	0x3d12	1.268
217	0xb8c6	-0.5967
218	0x30e0	0.1523
219	0xb656	-0.396
220	0xb7da	-0.4907
221	0x3a44	0.783
222	0xba49	-0.7856
223	0x319a	0.175
224	0x2bb9	0.06033
225	0xb776	-0.4663
226	0xb6d9	-0.428
227	0x369d	0.4133
228	0xb0a5	-0.1451
229	0xb603	-0.3757
230	0x38e0	0.6094
231	0xb2eb	-0.2162
232	0x3875	0.557
233	0xb477	-0.279
234	0xb829	-0.52
235	0x3858	0.543
236	0xae68	-0.1001
237	0xb321	-0.2228
238	0xaa51	-0.04935
239	0xae54	-0.0989
240	0x2c9e	0.07214
241	0xb33b	-0.226
242	0xbfb0	-1.922
243	0xb547	-0.3298
244	0xaea5	-0.1038
245	0xa54f	-0.02074
246	0x9d5b	-0.00523
247	0x3755	0.4583
248	0xba68	-0.801
249	0x35ab	0.3542
250	0x3853	0.5405
251	0x352b	0.323
252	0x222c	0.012054
253	0x2705	0.02742
254	0x3826	0.5186
255	0xb82e	-0.5225

functional/mobile_net_v3_small_backbone/bottleneck_3/batch_normalization_11/FusedBatchNormV3;StatefulPartitionedCall/functional/mobile_net_v3_small_backbone/bottleneck_3/batch_normalization_11/FusedBatchNormV3;functional/mobile_net_v3_small_backbone/bottleneck_3/depthwise_conv2d_3/depthwise;StatefulPartitionedCall/functional/mobile_net_v3_small_backbone/bottleneck_3/depthwise_conv2d_3/depthwise;functional/mobile_net_v3_small_backbone/bottleneck_3/depthwise_conv2d_3/BiasAdd;StatefulPartitionedCall/functional/mobile_net_v3_small_backbone/bottleneck_3/depthwise_conv2d_3/BiasAdd;unknown_701 f2 [1, 5, 5, 96]
0	0x3124	0.1606
1	0xb4f3	-0.3093
2	0xb417	-0.2556
3	0xb202	-0.1877
4	0x27a8	0.0299
5	0x29aa	0.04425
6	0xa81d	-0.03214
7	0x3454	0.2705
8	0xb6e7	-0.4314
9	0xb3ff	-0.2499
10	0x346c	0.2764
11	0xb493	-0.286
12	0xa9d5	-0.04556
13	0xb36f	-0.2323
14	0x28eb	0.03842
15	0xaaad	-0.05215
16	0xb01e	-0.1287
17	0xa9c8	-0.04517
18	0x2506	0.01962
19	0x32c6	0.2117
20	0x3412	0.2544
21	0xb47a	-0.2798
22	0xb18b	-0.1732
23	0x3880	0.5625
24	0x3444	0.2666
25	0x2d86	0.0863
26	0x3449	0.2678
27	0x30da	0.1516
28	0x31c3	0.18
29	0x3201	0.1876
30	0xb44d	-0.2688
31	0xb163	-0.1683
32	0x308d	0.1422
33	0x2ed4	0.1067
34	0x2c0d	0.0633
35	0xb318	-0.2217
36	0x1a7e	0.00317
37	0xb11d	-0.1598
38	0x366f	0.402
39	0xa463	-0.01714
40	0xb1e0	-0.1836
41	0xb33a	-0.2258
42	0xb40b	-0.2527
43	0x30dd	0.152
44	0x3190	0.1738
45	0x358b	0.3464
46	0x3306	0.2195
47	0xa970	-0.04248
48	0xa80c	-0.03162
49	0x23d7	0.01531
50	0x2660	0.0249
51	0x318d	0.1735
52	0x30a4	0.145
53	0xb7ae	-0.48
54	0xb557	-0.3337
55	0x30bd	0.1481
56	0xb121	-0.1603
57	0xac5c	-0.0681
58	0xb3a7	-0.2391
59	0x36b3	0.4187
60	0x3097	0.1434
61	0xb1bc	-0.1792
62	0x344c	0.2686
63	0xb16d	-0.1696
64	0x34fe	0.312
65	0x2c59	0.06793
66	0x3471	0.2776
67	0x349a	0.2876
68	0xb120	-0.1602
69	0xb2ec	-0.2163
70	0xab41	-0.05667
71	0x302d	0.1305
72	0x1b87	0.003675
73	0xb3e4	-0.2466
74	0xadec	-0.0925
75	0x342d	0.261
76	0xa359	-0.01435
77	0xb8a4	-0.58
78	0xaf2e	-0.1122
79	0xa595	-0.0218
80	0xb21f	-0.1913
81	0x354b	0.3308
82	0x28d6	0.03778
83	0x3329	0.2238
84	0xaf09	-0.1099
85	0x36ac	0.417
86	0xb83b	-0.529
87	0xa8f8	-0.03882
88	0x3615	0.3801
89	0x25b3	0.02226
90	0x3318	0.2217
91	0x3543	0.3289
92	0x32a0	0.207
93	0xb484	-0.2822
94	0x2d72	0.0851
95	0xb44e	-0.269
96	0x300d	0.1266
97	0x2de8	0.0923
98	0xb25b	-0.1986
99	0xb7d3	-0.489
100	0xaf0d	-0.11017
101	0x3157	0.1669
102	0xb051	-0.1349
103	0x352f	0.324
104	0xba54	-0.791
105	0xae71	-0.10065
106	0x2dfb	0.09344
107	0x35e7	0.369
108	0xb07d	-0.1403
109	0x9d53	-0.0052
110	0xb445	-0.2668
111	0xa937	-0.04074
112	0xb048	-0.1338
113	0x1e6b	0.006268
114	0xb7bb	-0.4832
115	0x36eb	0.4324
116	0x3825	0.518
117	0x3844	0.533
118	0xb97f	-0.687
119	0x34ab	0.2917
120	0x2345	0.0142
121	0xa8cd	-0.0375
122	0x2bfa	0.06232
123	0x3897	0.5737
124	0x317c	0.1714
125	0xb63a	-0.3892
126	0x3085	0.1412
127	0x1de5	0.005756
128	0x2d01	0.0782
129	0x3002	0.1252
130	0x2c10	0.0635
131	0xb0b3	-0.1469
132	0xac3c	-0.06616
133	0xb32b	-0.224
134	0x32b9	0.2101
135	0x26f0	0.0271
136	0xb3b3	-0.2406
137	0x2a10	0.04736
138	0x3425	0.259
139	0x366c	0.4014
140	0xb06d	-0.1383
141	0x33c0	0.2422
142	0x356f	0.3396
143	0xa7bd	-0.03023
144	0xb593	-0.3484
145	0x2cc5	0.0745
146	0xb0e0	-0.1523
147	0x3975	0.682
148	0x3813	0.5093
149	0x2f0c	0.1101
150	0xa5d0	-0.0227
151	0x3022	0.1292
152	0xb695	-0.4114
153	0xb391	-0.2365
154	0xb84e	-0.538
155	0x1671	0.001573
156	0x2ae9	0.054
157	0xb49e	-0.2886
158	0x2faf	0.12006
159	0xacab	-0.07294
160	0x2d8e	0.0868
161	0xb735	-0.4504
162	0x2953	0.0416
163	0xb4a2	-0.2896
164	0x2fc6	0.12146
165	0x3455	0.2708
166	0xb554	-0.333
167	0x2fa0	0.11914
168	0x2cfc	0.0779
169	0xb418	-0.2559
170	0xb1c5	-0.1803
171	0x37b7	0.4822
172	0xad84	-0.0862
173	0x351a	0.3188
174	0xb49f	-0.2888
175	0xb375	-0.233
176	0xb7fb	-0.4988
177	0xb8f6	-0.62
178	0x2d82	0.08606
179	0x3502	0.313
180	0xa48e	-0.01779
181	0x327f	0.203
182	0xb762	-0.4614
183	0xabc5	-0.0607
184	0x317a	0.1711
185	0xb40e	-0.2534
186	0xa69e	-0.02585
187	0x2c21	0.0645
188	0x35aa	0.354
189	0x38d3	0.603
190	0xb5ac	-0.3545
191	0x2f3b	0.113
192	0xacc4	-0.07446
193	0x34cb	0.2996
194	0xa921	-0.04007
195	0xad80	-0.08594
196	0x2d2c	0.0808
197	0xaf84	-0.11743
198	0xb3b3	-0.2406
199	0xaefe	-0.10925
200	0xb575	-0.341
201	0xa828	-0.03247
202	0x2efd	0.1092
203	0x3442	0.266
204	0xb135	-0.1627
205	0xb312	-0.221
206	0xafaa	-0.11975
207	0x350b	0.3152
208	0xba9f	-0.8276
209	0xaead	-0.1043
210	0x2e47	0.0981
211	0x35c3	0.36
212	0x3454	0.2705
213	0x2a72	0.05035
214	0xb493	-0.286
215	0x9694	-0.001606
216	0xaf31	-0.11237
217	0xb25b	-0.1986
218	0x30a1	0.1447
219	0x2bb6	0.06024
220	0x313f	0.164
221	0x2d2f	0.081
222	0xb571	-0.34
223	0xb9bc	-0.717
224	0x2cca	0.0748
225	0x3356	0.2292
226	0x2c55	0.0677
227	0xaece	-0.1063
228	0x2e95	0.10284
229	0xb80c	-0.506
230	0x2f3a	0.1129
231	0x307e	0.1404
232	0xaddd	-0.0916
233	0x2cf5	0.07745
234	0x3570	0.3398
235	0xb597	-0.3494
236	0xb815	-0.5103
237	0xb136	-0.1628
238	0xaaf7	-0.0544
239	0x325b	0.1986
240	0xb833	-0.525
241	0x3344	0.227
242	0x34b5	0.2942
243	0xb2f6	-0.2175
244	0x28f7	0.0388
245	0xaac6	-0.05292
246	0xb061	-0.1368
247	0xae1d	-0.0955
248	0xb732	-0.4497
249	0xaf47	-0.1137
250	0xb19e	-0.1755
251	0x37d0	0.4883
252	0xabc6	-0.06073
253	0xb88e	-0.5693
254	0xac13	-0.06366
255	0xb24f	-0.1971

functional/mobile_net_v3_small_backbone/bottleneck_3/squeeze_1/dense_2/MatMul;StatefulPartitionedCall/functional/mobile_net_v3_small_backbone/bottleneck_3/squeeze_1/dense_2/MatMul f2 [96, 96]
0	0xa4f3	-0.01933
1	0xb255	-0.1979
2	0x2d66	0.08435
3	0x2d02	0.07825
4	0x3014	0.1274
5	0x2eb3	0.1047
6	0x310d	0.1578
7	0xacda	-0.0758
8	0x2cbe	0.0741
9	0x2d53	0.0832
10	0xa848	-0.03345
11	0xad92	-0.08704
12	0x2698	0.02576
13	0x257e	0.02145
14	0x31e0	0.1836
15	0xb01d	-0.1285
16	0x2b64	0.05774
17	0x2deb	0.09247
18	0xa8c6	-0.0373
19	0x308b	0.142
20	0x2f92	0.1183
21	0xae13	-0.0949
22	0xaa53	-0.0494
23	0xb04b	-0.1342
24	0xb0fc	-0.1558
25	0x3071	0.1388
26	0x1760	0.001801
27	0xa79c	-0.02972
28	0x3188	0.1729
29	0x24b2	0.01834
30	0xb48e	-0.2847
31	0xb288	-0.2041
32	0xa7b3	-0.03008
33	0x2d40	0.08203
34	0xaa95	-0.05142
35	0x2ce3	0.07635
36	0x3071	0.1388
37	0xadac	-0.0886
38	0xa510	-0.01978
39	0x250a	0.01968
40	0xb3a7	-0.2391
41	0x9c4d	-0.0042
42	0xae9e	-0.1034
43	0xaa28	-0.0481
44	0x3070	0.1387
45	0x2e4f	0.0986
46	0x298d	0.04337
47	0xb023	-0.1293
48	0x2c4b	0.0671
49	0xb2fe	-0.2185
50	0xae24	-0.09595
51	0xabcd	-0.06094
52	0xb06c	-0.1382
53	0xa281	-0.0127
54	0xa8d1	-0.03763
55	0x29c8	0.04517
56	0x29a5	0.0441
57	0xa621	-0.02394
58	0x3347	0.2274
59	0x304c	0.1343
60	0x3002	0.1252
61	0x2b86	0.05878
62	0xb236	-0.1941
63	0xad74	-0.0852
64	0x2ab9	0.05252
65	0xad72	-0.0851
66	0x2f7f	0.1171
67	0xa9a5	-0.0441
68	0x2fa4	0.1194
69	0x270c	0.02753
70	0x2974	0.0426
71	0xafd2	-0.1222
72	0xb292	-0.2053
73	0x3057	0.1356
74	0x2afa	0.0545
75	0xb056	-0.1355
76	0x1fde	0.007683
77	0xad99	-0.08746
78	0xa2fe	-0.01366
79	0xaf19	-0.1109
80	0x290d	0.03946
81	0xa813	-0.03183
82	0xb52d	-0.3235
83	0xaba4	-0.0597
84	0x326f	0.201
85	0x24a9	0.0182
86	0x2bf5	0.06216
87	0xa185	-0.01078
88	0xb184	-0.1724
89	0xb06f	-0.1385
90	0xad83	-0.0861
91	0xac00	-0.0625
92	0xaf24	-0.1116
93	0xac1c	-0.0642
94	0x2dcb	0.0905
95	0xa94b	-0.04135
96	0xacce	-0.0751
97	0xa3f9	-0.01557
98	0x23be	0.01512
99	0x30cd	0.15
100	0x3115	0.1588
101	0xab82	-0.05865
102	0x24f0	0.01929
103	0x32b5	0.2096
104	0xace4	-0.0764
105	0x309a	0.1438
106	0x1d6d	0.0053
107	0x2ece	0.1063
108	0x2558	0.02087
109	0x333a	0.2258
110	0x1f75	0.007282
111	0xb0d5	-0.151
112	0xaf7f	-0.1171
113	0x9b4b	-0.003561
114	0xad62	-0.0841
115	0xb1d6	-0.1824
116	0x2d23	0.08026
117	0x2dda	0.09143
118	0xa993	-0.04355
119	0xb06e	-0.1384
120	0x25cb	0.02263
121	0x2cb4	0.0735
122	0x332b	0.224
123	0x315d	0.1676
124	0x2fd3	0.12225
125	0x3109	0.1573
126	0x2414	0.01593
127	0x2aed	0.0541
128	0x32c4	0.2114
129	0xa9e9	-0.04617
130	0xb036	-0.1316
131	0x294a	0.04132
132	0x2d53	0.0832
133	0xad64	-0.0842
134	0xb099	-0.1437
135	0xb2a0	-0.207
136	0x2e97	0.10297
137	0x9ef7	-0.0068
138	0x2b5c	0.0575
139	0x1081	0.00055
140	0x3203	0.1879
141	0x31ff	0.1874
142	0x2c87	0.07074
143	0x307e	0.1404
144	0xabc0	-0.06055
145	0x30ec	0.1538
146	0xb184	-0.1724
147	0x34fd	0.3118
148	0xb020	-0.1289
149	0xab99	-0.05936
150	0xaa5d	-0.0497
151	0xacb0	-0.07324
152	0xac7e	-0.0702
153	0xb15f	-0.1678
154	0xb258	-0.1982
155	0x3451	0.2698
156	0x317c	0.1714
157	0x2fbf	0.12103
158	0x310b	0.1576
159	0x3180	0.1719
160	0x2685	0.02547
161	0x2ec8	0.10596
162	0xabd7	-0.06125
163	0xa3fc	-0.015594
164	0x3196	0.1746
165	0xae2f	-0.0966
166	0xa520	-0.02002
167	0x2f22	0.11145
168	0x2cec	0.0769
169	0x2f2b	0.112
170	0x2db8	0.08936
171	0xaf0e	-0.1102
172	0xab39	-0.05643
173	0xaee3	-0.1076
174	0x3351	0.2286
175	0x30c1	0.1486
176	0xa2b7	-0.013115
177	0x31e3	0.184
178	0x2f9d	0.11896
179	0xafb2	-0.12024
180	0x9978	-0.00267
181	0x2de3	0.092
182	0x2dbe	0.0897
183	0xb001	-0.1251
184	0xae81	-0.1016
185	0x31d9	0.1827
186	0xb2fa	-0.218
187	0x22da	0.01338
188	0x992d	-0.002527
189	0x30a5	0.1451
190	0xacf0	-0.07715
191	0xaeb8	-0.105
192	0x2d8c	0.0867
193	0x2fc9	0.12164
194	0xb00e	-0.1267
195	0x2e72	0.1007
196	0x2efd	0.1092
197	0x3103	0.1566
198	0x2a52	0.04938
199	0xa30e	-0.01378
200	0x2921	0.04007
201	0x2504	0.01959
202	0x3035	0.1315
203	0xadd6	-0.0912
204	0xb1aa	-0.177
205	0x2e80	0.10156
206	0x29f1	0.04642
207	0xac33	-0.0656
208	0x3097	0.1434
209	0xae9e	-0.1034
210	0xb0b3	-0.1469
211	0x31a9	0.1769
212	0x304d	0.1344
213	0x2cb3	0.0734
214	0xb1c3	-0.18
215	0xae65	-0.0999
216	0xa89e	-0.03607
217	0xa989	-0.04324
218	0x2f7c	0.11694
219	0xacd4	-0.07544
220	0x2ae3	0.0538
221	0xa92a	-0.04034
222	0xb143	-0.1644
223	0x3065	0.1373
224	0xb18d	-0.1735
225	0x2b03	0.05478
226	0x251b	0.01994
227	0x309d	0.1442
228	0xb243	-0.1957
229	0x308a	0.1418
230	0xa83a	-0.03302
231	0x2cc9	0.07477
232	0xaf1f	-0.11127
233	0x3258	0.1982
234	0xb16b	-0.1693
235	0xae12	-0.09485
236	0x26dd	0.02681
237	0x2e57	0.09906
238	0x184f	0.002104
239	0xaa0c	-0.04724
240	0xb02b	-0.1302
241	0xb43c	-0.2646
242	0x236a	0.01448
243	0xa8f7	-0.0388
244	0xab08	-0.05493
245	0xad46	-0.0824
246	0x326d	0.2008
247	0xb0a6	-0.1453
248	0xa441	-0.01662
249	0x1fa2	0.007454
250	0x319e	0.1755
251	0x330b	0.2201
252	0x310b	0.1576
253	0x32bd	0.2106
254	0xa7d4	-0.03058
255	0x2a3c	0.0487

functional/mobile_net_v3_small_backbone/bottleneck_7/batch_normalization_23/FusedBatchNormV3;StatefulPartitionedCall/functional/mobile_net_v3_small_backbone/bottleneck_7/batch_normalization_23/FusedBatchNormV3;functional/mobile_net_v3_small_backbone/bottleneck_7/depthwise_conv2d_7/depthwise;StatefulPartitionedCall/functional/mobile_net_v3_small_backbone/bottleneck_7/depthwise_conv2d_7/depthwise;functional/mobile_net_v3_small_backbone/bottleneck_7/depthwise_conv2d_7/BiasAdd;StatefulPartitionedCall/functional/mobile_net_v3_small_backbone/bottleneck_7/depthwise_conv2d_7/BiasAdd;unknown_921 f2 [1, 5, 5, 144]
0	0xb4b4	-0.294
1	0x2daf	0.0888
2	0xa888	-0.0354
3	0xad89	-0.0865
4	0xb29a	-0.2063
5	0xb60f	-0.3787
6	0x31a2	0.176
7	0x3083	0.141
8	0xb413	-0.2546
9	0xa8e5	-0.03824
10	0x2cc9	0.07477
11	0x2b78	0.05835
12	0x2ac6	0.05292
13	0xb415	-0.2551
14	0xb43a	-0.2642
15	0x33d3	0.2445
16	0xb363	-0.2308
17	0xb14d	-0.1656
18	0xb1da	-0.1829
19	0xb4c6	-0.2983
20	0x38dc	0.6074
21	0xa8df	-0.03806
22	0x3505	0.3137
23	0x32dd	0.2145
24	0xb07b	-0.14
25	0xb4f5	-0.3098
26	0xa46b	-0.01726
27	0xab3b	-0.0565
28	0xb3d3	-0.2445
29	0x27c6	0.03036
30	0xb5d0	-0.3633
31	0xb75b	-0.4597
32	0x293f	0.041
33	0xa30b	-0.013756
34	0x35b1	0.3557
35	0xb356	-0.2292
36	0x31d4	0.1821
37	0xb026	-0.1296
38	0x2c91	0.07135
39	0xa488	-0.0177
40	0xa388	-0.01471
41	0xb41c	-0.2568
42	0x3016	0.1277
43	0xb3db	-0.2455
44	0xb0b1	-0.1466
45	0x3810	0.508
46	0x2eb5	0.1048
47	0x2fe8	0.12354
48	0x3849	0.5356
49	0xac8e	-0.07117
50	0x319b	0.1752
51	0xb3ec	-0.2476
52	0x2ffa	0.12463
53	0xaa54	-0.04944
54	0xa097	-0.008965
55	0xae26	-0.09607
56	0xaaad	-0.05215
57	0x30e9	0.1534
58	0x30c6	0.1492
59	0xb1bf	-0.1796
60	0xb883	-0.564
61	0xa14d	-0.01035
62	0x2912	0.0396
63	0x2aa5	0.0519
64	0xa9f5	-0.04654
65	0xb1ce	-0.1814
66	0x31f1	0.1857
67	0x2ec4	0.1057
68	0xb78c	-0.4717
69	0xb020	-0.1289
70	0x2716	0.02768
71	0xb8e5	-0.612
72	0x30bc	0.148
73	0x329e	0.2068
74	0xb705	-0.4387
75	0x2ee8	0.1079
76	0x21c5	0.01127
77	0x2c7f	0.07025
78	0x291b	0.0399
79	0x2d78	0.08545
80	0xb616	-0.3804
81	0xaca9	-0.0728
82	0x32f8	0.2178
83	0x2217	0.011894
84	0x31ff	0.1874
85	0xae8f	-0.1025
86	0xb32d	-0.2242
87	0x29f0	0.0464
88	0x3601	0.3752
89	0xac95	-0.0716
90	0x3612	0.3794
91	0xaddf	-0.09174
92	0xb553	-0.3328
93	0x9b2b	-0.0035
94	0xaf53	-0.11444
95	0xb1ee	-0.1853
96	0xb000	-0.125
97	0x3143	0.1644
98	0x29bc	0.0448
99	0x310c	0.1577
100	0xb4c0	-0.2969
101	0xb4d3	-0.3015
102	0xa819	-0.032
103	0xa423	-0.01616
104	0x2b5f	0.0576
105	0x9e29	-0.006016
106	0x2c0e	0.06335
107	0x998f	-0.002714
108	0x325a	0.1985
109	0xb184	-0.1724
110	0x3219	0.1906
111	0xae07	-0.0942
112	0xab22	-0.05573
113	0x9be7	-0.003859
114	0x33bd	0.2418
115	0x35f4	0.372
116	0xb3bb	-0.2416
117	0xb22a	-0.1926
118	0xaf77	-0.11664
119	0x31f7	0.1864
120	0x37ea	0.4946
121	0x353f	0.328
122	0xb56c	-0.3389
123	0x2f2c	0.11206
124	0x3063	0.1371
125	0x1ba3	0.003729
126	0x2c9f	0.0722
127	0xb03f	-0.1327
128	0x2586	0.02158
129	0x384f	0.5386
130	0xab30	-0.05615
131	0xb5a6	-0.353
132	0xac53	-0.06757
133	0xb523	-0.321
134	0x2e5f	0.09955
135	0xb6bf	-0.4216
136	0xb1b0	-0.1777
137	0x35e7	0.369
138	0xb793	-0.4734
139	0xb04e	-0.1345
140	0x3321	0.2228
141	0x2dc4	0.0901
142	0x297a	0.0428
143	0xb659	-0.3967
144	0x2139	0.0102
145	0x2e2d	0.0965
146	0xa4dc	-0.01898
147	0xae38	-0.09717
148	0x297c	0.04285
149	0x3138	0.1631
150	0xbb49	-0.9106
151	0xb312	-0.221
152	0x21d4	0.01138
153	0xa6a4	-0.02594
154	0x30cc	0.1499
155	0x00df	1.33e-05
156	0x2d05	0.0784
157	0x3262	0.1995
158	0xac72	-0.06946
159	0x3442	0.266
160	0x2796	0.02963
161	0x33cc	0.2437
162	0xa853	-0.03378
163	0x2c63	0.06854
164	0x375e	0.4604
165	0xb6ce	-0.4253
166	0x3579	0.342
167	0x2d7d	0.08575
168	0x33e8	0.2471
169	0xb4ec	-0.3076
170	0xa871	-0.0347
171	0xafd3	-0.12225
172	0xb00a	-0.1262
173	0xa230	-0.012085
174	0xac20	-0.06445
175	0xad4a	-0.08264
176	0x3000	0.125
177	0x2c54	0.0676
178	0xb349	-0.2277
179	0xb824	-0.5176
180	0x2ba9	0.05984
181	0x322c	0.1929
182	0x30ca	0.1497
183	0x27bb	0.0302
184	0xae0e	-0.0946
185	0xa881	-0.0352
186	0x34d8	0.3027
187	0xa81e	-0.03217
188	0xb294	-0.2056
189	0x3652	0.395
190	0xa1e6	-0.01152
191	0x2713	0.02763
192	0x2d51	0.08307
193	0x3260	0.1992
194	0x3832	0.5244
195	0x36e7	0.4314
196	0xad08	-0.0786
197	0xb489	-0.2834
198	0xac33	-0.0656
199	0x35b6	0.357
200	0xaebd	-0.1053
201	0x35da	0.3657
202	0x3420	0.2578
203	0x3501	0.3127
204	0x206b	0.00863
205	0x1a42	0.003056
206	0xb45a	-0.272
207	0x2e96	0.1029
208	0xb3e1	-0.2462
209	0xb056	-0.1355
210	0x2e5a	0.09924
211	0xa9f0	-0.0464
212	0xb3b9	-0.2413
213	0x29a6	0.04413
214	0xb151	-0.1661
215	0x33c0	0.2422
216	0x2f65	0.11554
217	0xb323	-0.223
218	0xb289	-0.2042
219	0xb78f	-0.4724
220	0x34f4	0.3096
221	0x3292	0.2053
222	0x2e49	0.0982
223	0x34de	0.3042
224	0xa5c4	-0.02252
225	0x2549	0.02065
226	0x3414	0.255
227	0x27cc	0.03046
228	0xa81e	-0.03217
229	0x2d85	0.08624
230	0xa88d	-0.03555
231	0x2fc2	0.1212
232	0xb8ab	-0.5835
233	0xb3f5	-0.2487
234	0x3256	0.198
235	0x256d	0.0212
236	0x2dd8	0.0913
237	0x24da	0.01895
238	0x387f	0.562
239	0xb4c1	-0.297
240	0x354c	0.331
241	0xadb6	-0.08923
242	0x9ed7	-0.00668
243	0x3337	0.2255
244	0xb242	-0.1956
245	0xb412	-0.2544
246	0x3027	0.1298
247	0xb462	-0.274
248	0x3256	0.198
249	0xb3b0	-0.2402
250	0xae04	-0.094
251	0x24b6	0.0184
252	0x2e73	0.10077
253	0xb428	-0.2598
254	0x301e	0.1287
255	0x9ff0	-0.00775
