011_googlemeet-segmentation-worker-js/resources/tflite_models/144x256/model_float16_quant.tflite (tflite, 420240 bytes, 109 tensors)

conv2d_1/y f2 [16]
00000000: 5630 dfbf 2bc1 85bc f83f 343a 7430 a53b
00000010: 6f39 d53e 533d 4a36 3e3f 643d a53a 1ebb
0.1355 -1.968 -2.584 -1.13 1.992 0.7754 0.1392 0.9556
0.679 1.708 1.331 0.393 1.811 1.348 0.8306 -0.8896

conv2d_17/y f2 [128]
00000000: 05b3 9eb3 9cb4 d130 e4b2 39b5 5530 41b2
00000010: 77b3 57b8 25b4 6aac 22ba 3a34 5aa6 08b3
00000020: 86b2 1b31 ceb6 3730 d130 07ac 6f2d 3bb2
00000030: 772e 11b1 b7ba adb8 e1af d2b4 52b0 38b5
00000040: e82f 2fb5 76b4 30bb 05b9 c731 7ab5 fdb8
00000050: 4cb1 2934 4234 9137 e22b 33a9 6830 94b6
00000060: 42b7 6335 6cb8 1f9d c8b4 f8b7 8f2b ffae
00000070: 0732 8db7 aeb4 15ae 0224 96b8 152b 312f
00000080: 0d37 2db5 242f 74b1 43ba b62d 49b5 9c2c
00000090: e2b5 beb5 ac2f 2cb6 c0b1 5cb1 a4b9 fcb6
000000a0: ffb8 4bb0 bcb5 edb1 c4bb d22d 7fb3 34a8
000000b0: cdb5 ceb7 32b3 a1b8 1dba 57b8 2cb3 27ac
000000c0: 922d da32 46bc c0b8 92b8 7fb5 eeb2 52b9
000000d0: e2a8 3bb8 fcb8 03b8 ef36 a5ae fe2e 4fac
000000e0: dfb5 18b7 3eb7 79b4 a5b6 dcb7 63b6 10b7
000000f0: ceb6 8bb8 4eb9 65b4 8335 0bb6 30ba 3134
-0.2194 -0.238 -0.288 0.1505 -0.2153 -0.3264 0.1354 -0.1954
-0.2333 -0.5425 -0.259 -0.069 -0.7666 0.2642 -0.02481 -0.2197
-0.2039 0.1595 -0.4253 0.1317 0.1505 -0.0629 0.0849 -0.1947
0.101 -0.1583 -0.8394 -0.5845 -0.1231 -0.3013 -0.135 -0.3262
0.12354 -0.324 -0.2788 -0.8984 -0.6274 0.1805 -0.3423 -0.6235
-0.1655 0.26 0.266 0.473 0.06158 -0.04062 0.1377 -0.4111
-0.4536 0.3367 -0.5527 -0.005 -0.2988 -0.498 0.05905 -0.1093
0.1884 -0.472 -0.2925 -0.09503 0.01566 -0.573 0.05533 0.11237
0.4407 -0.3235 0.1116 -0.1704 -0.7827 0.08923 -0.3303 0.072
-0.3677 -0.359 0.1199 -0.3857 -0.1797 -0.1675 -0.705 -0.4365
-0.6245 -0.1342 -0.3584 -0.1852 -0.9707 0.09094 -0.2343 -0.03284
-0.3625 -0.4878 -0.2249 -0.5786 -0.764 -0.5425 -0.2241 -0.0649
0.08704 0.2141 -1.068 -0.5938 -0.5713 -0.3435 -0.2166 -0.665
-0.03815 -0.529 -0.623 -0.5015 0.4333 -0.1038 0.10925 -0.0673
-0.367 -0.4434 -0.4526 -0.2795 -0.4153 -0.4912 -0.3992 -0.4414
-0.4253 -0.568 -0.663 -0.2747 0.3445 -0.3777 -0.7734 0.262

conv2d_20/y f2 [24]
00000000: 5ca6 5cb1 b135 3fa9 8bb1 a537 ccb2 3931
00000010: f2b8 fe3a d9b4 0abb 7231 38b4 6eb8 17b9
00000020: d1aa 12b8 2e34 fd34 bb2c 253c 6db4 df3b
-0.02484 -0.1675 0.3557 -0.041 -0.1732 0.4778 -0.2124 0.1632
-0.618 0.874 -0.303 -0.88 0.1702 -0.2637 -0.5537 -0.636
-0.05325 -0.509 0.2612 0.3118 0.0739 1.036 -0.2766 0.984

conv2d_24/y f2 [16]
00000000: f6ae c5b4 5633 0baf 9f36 e6b8 97b5 6838
00000010: cdb7 3231 48ab 6b3a bb36 4b39 5cb3 4e2d
-0.10876 -0.298 0.2292 -0.11005 0.4138 -0.6123 -0.3494 0.551
-0.4875 0.1624 -0.0569 0.8022 0.4207 0.6616 -0.23 0.0829

conv2d_28/y f2 [16]
00000000: d02f ffb5 3db0 cc38 6236 1aaa f639 7ab0
00000010: 8333 1a30 db36 c638 f631 00b1 af33 ff2f
0.1221 -0.3748 -0.1324 0.5996 0.399 -0.04767 0.745 -0.1399
0.2347 0.1282 0.4285 0.5967 0.1863 -0.1562 0.2401 0.12494

conv2d_3/y f2 [72]
00000000: e53c 9aa2 ed3c 283b a63a 693b 763c 093d
00000010: 9d39 8a3d 4f3d ac36 143e 2a33 8a3d b73a
00000020: 943d f63f d637 bbb9 d13c ccba 1434 ad3c
00000030: 8b3f b339 ca3b 9f3d 4d34 dbb6 15b8 c33e
00000040: 5d3c 5c3d 743c e840 3339 9cb3 8d3c f53c
00000050: 13b4 bc3d 633f 893d 69b7 a03a 3ab9 443c
00000060: 363d 3b37 4e34 1b38 bf44 ca3c 643a 0e3b
00000070: b03e 543d ec37 0940 6739 813c 712f df3c
00000080: 92af b23c d33b 5038 80b7 b23c c03c 823b
1.224 -0.01289 1.231 0.8945 0.831 0.9263 1.115 1.259
0.7017 1.385 1.327 0.417 1.52 0.2239 1.385 0.8394
1.395 1.99 0.4897 -0.7163 1.204 -0.8496 0.255 1.169
1.886 0.7124 0.9736 1.405 0.2688 -0.4285 -0.5103 1.69
1.091 1.34 1.113 2.453 0.65 -0.2378 1.138 1.239
-0.2546 1.434 1.847 1.384 -0.4631 0.828 -0.6533 1.066
1.303 0.452 0.269 0.513 4.746 1.197 0.799 0.882
1.672 1.332 0.495 2.018 0.6753 1.126 0.1163 1.218
-0.1183 1.174 0.978 0.539 -0.4688 1.174 1.1875 0.9385

conv2d_5/y f2 [88]
00000000: b73b e73c e32e 0a3c 403d 2135 4b3b 5ab8
00000010: b937 c835 ea3c f23c 353c 7039 c23a b53a
00000020: ca42 303c eeb5 793a 023d 2f3c 4a32 d237
00000030: e9b8 0d3a c3b1 7141 9d3d 0a3a 6eb6 753c
00000040: 3eb2 093f 163a 6339 a23a 3d38 1624 f93b
00000050: 123c 70b7 503b b635 b43b fe38 983c 7e3d
00000060: 393a 742d 903c 663c 143b d0b9 e33c 9eac
00000070: ee3d f93b a136 3a3a 2a3a 0834 ef39 b9aa
00000080: 1738 883a b827 6eaa cc3a 3c3c 1738 241f
00000090: 2135 f633 f13a 2c31 c3b8 113b 9f41 013d
000000a0: c1b0 7d3c c13a 3f3c 583b d73b 7e3c 9538
0.9644 1.226 0.1076 1.01 1.3125 0.3206 0.9116 -0.544
0.4827 0.3613 1.229 1.236 1.052 0.6797 0.8447 0.8384
3.395 1.047 -0.3706 0.809 1.252 1.046 0.1965 0.4888
-0.614 0.7563 -0.18 2.72 1.403 0.755 -0.4019 1.114
-0.1951 1.759 0.7607 0.6733 0.829 0.53 0.01596 0.9966
1.018 -0.4648 0.914 0.357 0.963 0.624 1.148 1.373
0.778 0.0852 1.141 1.1 0.885 -0.7266 1.222 -0.07214
1.482 0.9966 0.4143 0.7783 0.7705 0.252 0.7417 -0.05252
0.511 0.8164 0.03015 -0.05023 0.8496 1.059 0.511 0.006973
0.3206 0.2488 0.8677 0.1616 -0.595 0.8833 2.81 1.251
-0.1486 1.122 0.844 1.062 0.918 0.98 1.123 0.5728

dense/bias f2 [16]
00000000: 30b4 fdb8 bfb2 25b1 6eaf 7a38 2837 6db6
00000010: cbb6 e534 9038 d336 6936 2729 7ab9 bbaf
-0.2617 -0.6235 -0.2108 -0.1608 -0.1161 0.5596 0.4473 -0.4016
-0.4246 0.306 0.5703 0.4265 0.4006 0.04025 -0.6846 -0.1208

dense_1/bias f2 [16]
00000000: 2d3e 32af a9b8 24af e439 73b5 2f2f 6836
00000010: d7b7 812b 3eb6 6332 3a9a 583b 49b7 e2b5
1.544 -0.1124 -0.5825 -0.1116 0.7363 -0.3406 0.11224 0.4004
-0.49 0.05862 -0.3901 0.1996 -0.00304 0.918 -0.4553 -0.3677

dense_10/bias f2 [72]
00000000: a2a8 67b4 b930 55b5 fcb2 14b4 042d 25b0
00000010: 8cb4 3a31 deb2 21b5 4ab1 87b2 7131 dd33
00000020: bd26 49b6 b2b4 82b1 27b2 062c 892d 3ab2
00000030: c231 bcae 97b0 0234 a2b4 bbae 8eae 29af
00000040: c7b0 65b3 1fb6 f5b7 a034 2ab5 45ad 2db2
00000050: 162b 13b2 11a0 47b1 8ab2 41b9 ae32 3bab
00000060: 9daf 12b2 4db1 f4a8 ecb6 4aa9 81b0 bfb7
00000070: 66b6 d4b5 4f31 7eb5 97b4 34b4 75b4 39b4
00000080: c4b3 932a efb1 e6ac cbb1 b9b2 2bb5 28b3
-0.0362 -0.2751 0.1476 -0.3333 -0.2183 -0.255 0.07837 -0.1295
-0.2842 0.1633 -0.2146 -0.3206 -0.1653 -0.204 0.17 0.2457
0.02632 -0.3928 -0.2935 -0.1721 -0.1923 0.06287 0.0865 -0.1946
0.1799 -0.1052 -0.1434 0.2505 -0.2896 -0.10516 -0.1024 -0.1119
-0.1493 -0.2311 -0.3826 -0.4973 0.289 -0.3228 -0.08234 -0.193
0.05536 -0.1898 -0.00794 -0.1649 -0.2043 -0.6567 0.2087 -0.0565
-0.11896 -0.1897 -0.1656 -0.0387 -0.4326 -0.04132 -0.1407 -0.4841
-0.4 -0.3643 0.1659 -0.3433 -0.2869 -0.2627 -0.2786 -0.264
-0.2427 0.05136 -0.1854 -0.07654 -0.181 -0.2101 -0.323 -0.2236

dense_11/bias f2 [72]
00000000: 2daa 6a35 8537 7b30 8f39 4134 94ad 0231
00000010: ee38 18b6 c7af 4431 a430 cca3 d13a b22c
00000020: ed2e 672c 173a 62b1 4b36 e73a 52ae f628
00000030: 0eb7 e9b8 8a38 1639 4134 4134 a9ad 74ac
00000040: 9cb1 8a30 d236 db39 3a36 c42e a4b0 2724
00000050: a8b5 d8b8 5f39 4e37 f622 9fb2 a3b1 693c
00000060: b231 e132 523a 212b 8334 1731 cfb8 c333
00000070: ab31 ac24 e234 ef18 d2b7 2038 ff31 cf2f
00000080: 5f31 32bb 5630 7e38 7836 4e38 7030 7e2a
-0.04825 0.3384 0.47 0.14 0.695 0.2659 -0.08716 0.1565
0.616 -0.3809 -0.1215 0.1646 0.145 -0.01523 0.852 0.07336
0.1082 0.0688 0.761 -0.1682 0.3933 0.863 -0.09875 0.03876
-0.441 -0.614 0.5674 0.6357 0.2659 0.2659 -0.08844 -0.0696
-0.1753 0.1418 0.4263 0.732 0.3892 0.1057 -0.145 0.01622
-0.3535 -0.6055 0.6714 0.4565 0.013596 -0.2069 -0.1761 1.103
0.178 0.215 0.79 0.0557 0.282 0.159 -0.601 0.2426
0.1771 0.01825 0.3052 0.002409 -0.4888 0.5156 0.1874 0.122
0.1678 -0.8994 0.1355 0.5615 0.4043 0.538 0.1387 0.05072

dense_2/bias f2 [96]
00000000: 09b1 1e34 ef32 18b0 aea2 7eb2 99b4 6bb1
00000010: 0ab5 5433 33ae 18b4 7cab be2f 69b2 802e
00000020: 21b6 f5b5 a4b1 55b6 4b32 ceaf e5b1 02a9
00000030: e6b3 37b0 c2b5 8ab2 0bb4 deb4 99b5 8dae
00000040: f2ad 78b6 dfb0 57b4 48b5 38af faac bbb3
00000050: 92a7 ba2d 9728 eab1 a4b4 b9ac 5bb5 f2ad
00000060: a4af 3812 3032 12b3 24b4 71b5 b3b2 6cb0
00000070: c1b5 c2b5 4135 639d a4b2 00b0 f6b0 1c31
00000080: 56af c62b 76af 97ab e4af 9fb3 e025 2ab0
00000090: 79b0 25b8 b2af 80a5 beb2 36b1 0a2c 42af
000000a0: bcb3 6330 02af 4b30 1e2e 37b3 caae 3fb3
000000b0: 87ad 3dad 6ab1 feb4 9eaf a0b5 a2b7 a936
-0.1573 0.2573 0.2167 -0.1279 -0.01305 -0.2029 -0.2874 -0.1693
-0.315 0.229 -0.09686 -0.2559 -0.05847 0.121 -0.2003 0.10156
-0.383 -0.3723 -0.1763 -0.3958 0.1967 -0.12195 -0.1842 -0.03912
-0.2468 -0.1317 -0.3599 -0.2043 -0.2527 -0.3042 -0.3499 -0.10236
-0.0929 -0.4043 -0.1522 -0.2712 -0.33 -0.1128 -0.07776 -0.2416
-0.02957 0.0895 0.03586 -0.1848 -0.29 -0.0738 -0.3347 -0.0929
-0.1194 0.000759 0.1934 -0.221 -0.2588 -0.34 -0.2094 -0.1382
-0.3596 -0.3599 0.3284 -0.00526 -0.2075 -0.125 -0.155 0.1597
-0.1146 0.06073 -0.1166 -0.0593 -0.1233 -0.2382 0.02295 -0.1301
-0.1398 -0.518 -0.12024 -0.02148 -0.2107 -0.1628 0.0631 -0.1134
-0.2417 0.1371 -0.1095 0.1342 0.0956 -0.2255 -0.1061 -0.2264
-0.08636 -0.08185 -0.1692 -0.312 -0.119 -0.3516 -0.477 0.4163

dense_3/bias f2 [96]
00000000: d5ab fe39 6329 6139 673a 8639 ef34 be38
00000010: 1838 cf39 5a3c 62bd 352a aeb4 e43c bd31
00000020: ca37 89b5 ce34 423e 8cb1 9b2e 9a33 092c
00000030: 8739 203c 54ad 9f34 4998 e238 c9aa db38
00000040: c238 b43b e1a7 c7a5 ebae 7a29 b739 f537
00000050: 7c3c 92b0 a036 6034 3d38 a53b 3233 11b8
00000060: f528 5a3b 8b36 33b9 1bb6 eca8 9738 9c3c
00000070: a9ba 3433 933a 2d38 023b 243d ac39 b534
00000080: 44b5 0937 3d38 df36 8132 21b6 b93a 513f
00000090: ab3a 1d39 6bab 2d31 0435 7e3a 4c3c 34bb
000000a0: 26b1 0c37 7d30 093a 9fb9 1e38 f13a 4d3a
000000b0: 2d2e 09b7 9431 b12e 0e38 343b 9036 3831
-0.0612 0.749 0.04208 0.6724 0.8003 0.6904 0.3083 0.593
0.5117 0.726 1.088 -1.346 0.0485 -0.2925 1.223 0.1793
0.4868 -0.346 0.3003 1.564 -0.1733 0.1032 0.2375 0.06305
0.691 1.031 -0.08325 0.2888 -0.002092 0.6104 -0.053 0.607
0.5947 0.963 -0.03078 -0.02257 -0.1081 0.0428 0.7144 0.4973
1.121 -0.1428 0.414 0.2734 0.53 0.9556 0.2249 -0.5083
0.03873 0.919 0.409 -0.65 -0.3816 -0.03845 0.5737 1.152
-0.8325 0.2251 0.822 0.522 0.876 1.285 0.709 0.2942
-0.329 0.4397 0.53 0.4294 0.2032 -0.383 0.8403 1.829
0.8335 0.639 -0.05795 0.1617 0.3135 0.8115 1.074 -0.9004
-0.1609 0.4404 0.1403 0.7544 -0.7026 0.5146 0.8677 0.7876
0.0965 -0.4397 0.1743 0.10455 0.507 0.9004 0.4102 0.1631

dense_4/bias f2 [128]
00000000: 5ab1 98b7 36aa 9db3 2fb5 e7b4 ccb8 55b5
00000010: 4cb9 f1ae 83a1 9cb5 30b7 34b1 d5b6 74b4
00000020: 48b2 12b8 33b2 23b8 52b4 68b3 8130 0bb2
00000030: 02b6 05b5 abb4 6db2 83b3 3fad a2b5 b8b6
00000040: 3c97 0db4 96a7 1eb0 67b5 dcb9 00b2 fbb4
00000050: 67b6 b3b6 d4b0 c5b7 26b4 d9b1 e3b1 c5b2
00000060: 64b2 13b1 05b7 bab4 b6b6 adb3 89ad cbb0
00000070: f2b1 702b 3b37 60b7 b3b5 1b33 a9b4 6fb5
00000080: 1cb7 19b0 4bb4 a9b8 4cb8 f9b3 94b1 c3b4
00000090: b1b7 8ab5 77b7 52b8 0ab4 e7b6 f1b6 9eb0
000000a0: f3b2 dfb8 78b3 1fb5 a6b7 b2b0 a0b2 c6b0
000000b0: 3eb8 5bb4 31b7 66b6 55b9 82b8 1cb9 72b2
000000c0: 45b1 f0b7 6fb2 0f2e d92f dbad d02f e9b6
000000d0: be2b f7b5 52aa 71b3 61b4 bdb6 6fb4 44b6
000000e0: dbb2 43b8 43b6 69b5 3c2d bab4 21b5 08b2
000000f0: 71b3 2ab8 82b6 83b8 45b5 10b8 67b3 d4b8
-0.1672 -0.4746 -0.04852 -0.2379 -0.324 -0.3064 -0.5996 -0.3333
-0.662 -0.10846 -0.010765 -0.3506 -0.4492 -0.1626 -0.427 -0.2783
-0.1963 -0.509 -0.1937 -0.517 -0.27 -0.2314 0.1407 -0.1888
-0.3755 -0.3137 -0.2917 -0.2008 -0.2347 -0.082 -0.352 -0.42
-0.001766 -0.2532 -0.02963 -0.1287 -0.3376 -0.7324 -0.1875 -0.3113
-0.4001 -0.4187 -0.1509 -0.4856 -0.2593 -0.1827 -0.184 -0.2115
-0.1997 -0.1586 -0.4387 -0.2954 -0.4194 -0.2399 -0.0865 -0.1498
-0.1858 0.0581 0.452 -0.461 -0.3562 0.222 -0.2913 -0.3396
-0.4443 -0.128 -0.2683 -0.5825 -0.537 -0.2491 -0.1743 -0.2976
-0.4807 -0.3462 -0.4666 -0.54 -0.2524 -0.4314 -0.4338 -0.1443
-0.2172 -0.609 -0.2334 -0.32 -0.478 -0.1467 -0.207 -0.1492
-0.5303 -0.2722 -0.4495 -0.4 -0.6665 -0.5635 -0.6387 -0.2014
-0.1647 -0.496 -0.201 0.09467 0.1226 -0.0915 0.1221 -0.432
0.0605 -0.3728 -0.04938 -0.2325 -0.2737 -0.4211 -0.277 -0.3916
-0.2142 -0.5327 -0.3914 -0.3381 0.0818 -0.2954 -0.3206 -0.1885
-0.2325 -0.5205 -0.4067 -0.564 -0.3293 -0.508 -0.2313 -0.6035

dense_5/bias f2 [128]
00000000: f73c bc39 9434 972e 1232 863d 3a3a 5b37
00000010: 0937 0938 2230 6735 c1b6 3eb6 0d30 de36
00000020: 5635 7f37 13b8 dab4 f735 7739 2333 8037
00000030: 3739 dd38 093b 213c 1d34 41b4 7b34 f038
00000040: 973c b0b3 09b8 663c 1e3c 0c38 acad 0d35
00000050: 2039 9fb5 5439 903d a232 973b ef39 51bc
00000060: ae39 b639 c636 7931 4a39 c236 1eb6 01af
00000070: ad38 f324 9435 f339 ffbb 4932 3b38 9a39
00000080: 2037 ce3b e63b 5d32 e333 52b8 0f30 7739
00000090: b037 6db8 9d3b a8b8 cd30 1a2d f2b4 2632
000000a0: fb38 5535 4b37 6f3a 5ab0 0eac ddb9 d13d
000000b0: 8d3a 1db1 963d 1b34 033b d739 3338 e735
000000c0: 8d31 6f35 2238 d83a 02aa da39 c436 0a3a
000000d0: 0439 3b3a ba3b 2b38 8eb4 403c 3f34 1632
000000e0: 7631 533c ef3a ed38 df3a fb34 043c 7638
000000f0: 8c33 3f37 373d ab3b 2a39 0138 4a39 873a
1.241 0.717 0.2861 0.10297 0.1897 1.381 0.7783 0.4597
0.4397 0.5044 0.1292 0.3376 -0.422 -0.3901 0.1266 0.4292
0.3335 0.4685 -0.5093 -0.3032 0.3728 0.683 0.223 0.4688
0.652 0.608 0.8794 1.032 0.257 -0.2659 0.28 0.617
1.147 -0.2402 -0.5044 1.1 1.029 0.506 -0.0886 0.3157
0.6406 -0.3513 0.666 1.391 0.2073 0.9487 0.7417 -1.079
0.71 0.714 0.4233 0.171 0.661 0.4224 -0.3823 -0.10944
0.5845 0.01933 0.3486 0.7437 -0.9995 0.1964 0.529 0.7
0.4453 0.9756 0.9873 0.1989 0.2465 -0.54 0.1268 0.683
0.4805 -0.553 0.9517 -0.582 0.15 0.0797 -0.309 0.1921
0.6226 0.3333 0.4558 0.804 -0.136 -0.06335 -0.733 1.454
0.819 -0.1598 1.396 0.2566 0.8765 0.73 0.525 0.369
0.1735 0.3396 0.5166 0.8555 -0.04694 0.7314 0.4229 0.755
0.627 0.779 0.966 0.521 -0.2847 1.0625 0.2654 0.1902
0.1707 1.081 0.8667 0.6157 0.859 0.3113 1.004 0.5576
0.2358 0.453 1.304 0.9585 0.6455 0.5005 0.661 0.816

dense_6/bias f2 [128]
00000000: 8cb6 9eb7 4e30 feb9 86b7 7330 30b8 12b4
00000010: 152c 72bb 8ab0 35b7 30bb 52b4 0fb4 13b4
00000020: 77b6 81b4 27b4 1bb3 ceb3 18bb dab8 7831
00000030: 22b5 d6b6 f6b4 9eb3 55b7 0fb4 d1b3 30b8
00000040: cb2b 57b7 8bb9 b2ae cc98 b332 5fb1 d7b8
00000050: 7ca1 02b8 82b1 acb5 58ba 75b8 2db9 8eb4
00000060: 2e33 dcb9 9cb5 b7b5 e8b4 cdb9 feb6 55b7
00000070: b0b4 55b8 6bb4 57b4 6daa 65b9 6330 3024
00000080: 50b8 44b8 9fb7 bbb3 3db6 772b 89b4 a332
00000090: a0b8 feb3 c6b9 38b5 d2af 26b6 f4b5 c2b5
000000a0: 3fb2 eeb8 4bb8 1cb5 6931 3ab1 c0b4 11b8
000000b0: 44b4 97b1 22b5 e4b4 5fb0 dcb6 26b2 abaa
000000c0: bab5 4eb2 a6b7 cb2e 9ba0 03b6 99b9 60af
000000d0: 1bb7 b326 07b0 5a35 39b5 3bb6 a7b8 8ab8
000000e0: bdb2 85a9 c3b0 40ac 77b1 02b3 b1ad b4b1
000000f0: 11b6 b3b8 c929 87b4 b9b4 6cb6 81b2 beb2
-0.4092 -0.476 0.1345 -0.749 -0.4702 0.139 -0.5234 -0.2544
0.0638 -0.9307 -0.1418 -0.4504 -0.8984 -0.27 -0.2537 -0.2546
-0.404 -0.2815 -0.2595 -0.222 -0.2439 -0.8867 -0.6064 0.1709
-0.3208 -0.4272 -0.31 -0.238 -0.4583 -0.2537 -0.2443 -0.5234
0.06088 -0.4587 -0.693 -0.1046 -0.002342 0.2094 -0.1678 -0.605
-0.01071 -0.501 -0.1721 -0.3545 -0.793 -0.557 -0.647 -0.2847
0.2244 -0.7324 -0.3506 -0.3572 -0.3066 -0.725 -0.437 -0.4583
-0.293 -0.5415 -0.2761 -0.2712 -0.0502 -0.6743 0.1371 0.01636
-0.539 -0.533 -0.4763 -0.2416 -0.39 0.05832 -0.2834 0.2074
-0.578 -0.2498 -0.7217 -0.3262 -0.1222 -0.3843 -0.372 -0.3599
-0.1952 -0.616 -0.5366 -0.3193 0.1691 -0.1633 -0.2969 -0.5083
-0.2666 -0.1747 -0.3208 -0.3057 -0.1366 -0.4287 -0.1921 -0.0521
-0.358 -0.197 -0.478 0.10614 -0.008995 -0.3757 -0.6997 -0.11523
-0.444 0.02617 -0.1259 0.3345 -0.3264 -0.3894 -0.5815 -0.5674
-0.2106 -0.04312 -0.1488 -0.0664 -0.1708 -0.219 -0.0889 -0.1782
-0.3792 -0.5874 0.0452 -0.283 -0.2952 -0.4014 -0.2032 -0.2107

dense_7/bias f2 [128]
00000000: b9b6 bd39 8937 083b 123c 173a 3435 3424
00000010: 2533 8c3b c039 443a 4536 18b3 18b0 5032
00000020: 80b3 33b2 8233 6336 1537 672a 9ab4 c6b2
00000030: a33a 6f35 a33a 0730 f735 bcb8 28b5 323b
00000040: 3d1a aa35 13b5 ac39 8931 d6b4 a638 bd38
00000050: 22ae 3f3e b63a 6c31 9533 2538 33b6 75b5
00000060: 9935 6234 2a37 b137 6b3a e238 7fb0 74b4
00000070: 312c e339 7534 c53c 26b6 7833 7a32 2db6
00000080: 3037 29a6 0aba 5d35 f535 be38 fe3b 6a2a
00000090: 6d38 ac37 5ea4 e334 a739 0537 a7b2 34b0
000000a0: d0aa 5728 aca6 3f31 6c36 c436 71b8 05b9
000000b0: c8b5 8735 66aa 533b dfb1 9b35 4138 7e9c
000000c0: 3bb3 572f fb32 5232 e136 d3b8 24ac d036
000000d0: e7b0 a82d 4e3c 7539 e634 2631 6aa4 073a
000000e0: 2134 ca35 263a 7539 b838 ea36 24a9 db35
000000f0: b2af 4138 f934 cc38 6539 d72d df35 9a36
-0.4202 0.7173 0.471 0.879 1.018 0.761 0.3252 0.01642
0.2233 0.9434 0.7188 0.783 0.3918 -0.2217 -0.1279 0.1973
-0.2344 -0.1937 0.2346 0.3992 0.4426 0.05002 -0.2876 -0.2117
0.8296 0.3396 0.8296 0.1259 0.3728 -0.592 -0.3223 0.8994
0.003046 0.354 -0.3171 0.709 0.173 -0.3022 0.581 0.5923
-0.0958 1.562 0.839 0.1694 0.2369 0.518 -0.3875 -0.341
0.3499 0.274 0.4478 0.4807 0.8022 0.6104 -0.1405 -0.2783
0.0655 0.736 0.2786 1.192 -0.3843 0.2334 0.2024 -0.386
0.4492 -0.02406 -0.755 0.3352 0.3723 0.593 0.999 0.0501
0.553 0.4795 -0.01706 0.3054 0.7065 0.4387 -0.2079 -0.1313
-0.05322 0.0339 -0.02606 0.164 0.4014 0.4229 -0.555 -0.6274
-0.3613 0.3455 -0.05 0.9155 -0.1835 0.3503 0.5317 -0.004387
-0.226 0.1147 0.2181 0.1975 0.43 -0.603 -0.0647 0.4258
-0.1532 0.0884 1.076 0.682 0.3062 0.1609 -0.01724 0.7534
0.258 0.3618 0.7686 0.682 0.59 0.4321 -0.04016 0.366
-0.12024 0.5317 0.3108 0.5996 0.6743 0.09125 0.367 0.4126

dense_8/bias f2 [96]
00000000: f4b4 ecb6 8fb4 a8b5 f7b3 78b2 ceb8 82b4
00000010: 589d 10b6 212b ccb8 67b5 91ac dbb0 41b5
00000020: 27b5 74ac ffb0 0ab7 5bb5 9eb1 67b4 bc23
00000030: 3eb9 272c 1632 f4b6 75b5 52b3 d1af 52a9
00000040: 8dac 5ab6 72b3 a3b2 e0b1 3ab6 3134 9eaf
00000050: ebb5 31b0 d1b5 28b9 62b0 34a7 71b4 c9b8
00000060: 44b8 4bb6 ddaa 29b9 b9b5 a527 34ad 502d
00000070: cfb9 c3b4 fda6 26b8 c0b5 60b4 59b8 7db1
00000080: a624 60b7 90b5 dfb5 b1b2 b732 68b0 7eb6
00000090: 77ac aeb7 17a8 65b5 1baf eab5 bfb3 2836
000000a0: 8aaf 47b2 5fb4 7621 7fb7 f9b5 73b4 65b8
000000b0: d1b5 66b8 25b0 3db4 8f9f dab6 b0b4 9ca8
-0.3096 -0.4326 -0.285 -0.3535 -0.2489 -0.2021 -0.6006 -0.2817
-0.00522 -0.379 0.0557 -0.5996 -0.3376 -0.07135 -0.1517 -0.3284
-0.322 -0.0696 -0.1561 -0.44 -0.3347 -0.1755 -0.2751 0.01511
-0.6553 0.0649 0.1902 -0.4346 -0.341 -0.2288 -0.12213 -0.04156
-0.0711 -0.397 -0.2327 -0.2074 -0.1836 -0.3892 0.262 -0.119
-0.3699 -0.131 -0.3635 -0.6445 -0.137 -0.02814 -0.2776 -0.598
-0.533 -0.3933 -0.05362 -0.645 -0.3577 0.02986 -0.0813 0.083
-0.726 -0.2976 -0.0273 -0.5186 -0.3594 -0.2734 -0.5435 -0.1715
0.01816 -0.461 -0.3477 -0.367 -0.2091 0.2098 -0.1377 -0.4058
-0.06976 -0.48 -0.03195 -0.3372 -0.111 -0.3696 -0.2421 0.3848
-0.1178 -0.1962 -0.2732 0.010666 -0.4685 -0.3733 -0.278 -0.5493
-0.3635 -0.55 -0.1295 -0.265 -0.00738 -0.4282 -0.293 -0.036

dense_9/bias f2 [96]
00000000: d1b8 4431 d5ae 17b8 e836 3733 3438 43b5
00000010: fc37 8734 9f3a 3235 4038 7139 0434 fb30
00000020: 5c33 1437 e335 5737 9ba8 c5b6 72b5 3b37
00000030: 20b3 6ab2 6da8 a835 8bb0 132d b239 7cb4
00000040: a437 90b3 57b4 4db3 5b34 693b bab6 ef32
00000050: 402d eb39 efae 3527 1937 2d39 3e37 6e2b
00000060: 2539 ef34 2132 7a30 6137 2eb6 f529 e434
00000070: 19b7 c6b8 b226 3935 b6ae 7e31 65bb 11ac
00000080: 6939 8139 c338 2d25 483d e92a bc2b 9fad
00000090: 6c36 3231 e7ad 502c daba 2030 edad 6a38
000000a0: 503a f334 f332 5d38 592a 5034 f236 c7ac
000000b0: 973b 1d2d d7b0 a23a 7f3a 6339 bbb4 d636
-0.602 0.1646 -0.10675 -0.511 0.4316 0.2255 0.5254 -0.3289
0.499 0.283 0.8276 0.3247 0.5312 0.68 0.251 0.1556
0.23 0.4424 0.368 0.4587 -0.03598 -0.423 -0.3403 0.452
-0.2227 -0.2004 -0.03458 0.3535 -0.142 0.0793 0.712 -0.2803
0.4775 -0.2363 -0.2712 -0.2281 0.2722 0.9263 -0.4204 0.2167
0.08203 0.7397 -0.10834 0.02815 0.4436 0.647 0.4526 0.05804
0.643 0.3083 0.1915 0.1399 0.4612 -0.3862 0.04654 0.3057
-0.4436 -0.5967 0.02615 0.3264 -0.10486 0.1716 -0.9243 -0.06354
0.6763 0.688 0.595 0.02022 1.32 0.054 0.06042 -0.0878
0.4014 0.1624 -0.0922 0.0674 -0.8564 0.1289 -0.0926 0.552
0.789 0.3093 0.2172 0.5454 0.0496 0.2695 0.434 -0.07465
0.9487 0.0799 -0.1512 0.829 0.812 0.6733 -0.2957 0.4272

depthwise_conv2d/y f2 [16]
00000000: 683b 2ea7 269e 7534 83a5 ac35 0c3e 43b6
00000010: 099c ef25 2241 2230 6c9c 783d 2831 c3ae
0.926 -0.02805 -0.006004 0.2786 -0.02153 0.3545 1.512 -0.3914
-0.00394 0.02318 2.566 0.1292 -0.00432 1.367 0.1611 -0.10565

depthwise_conv2d_1/y f2 [72]
00000000: 0b3e d22e 1446 5db1 b23e 8d3f a93f 75af
00000010: 053b 8233 a2b0 f1a9 2331 201d 41ae 89b8
00000020: e5ba 4b3f 543e 2941 bab0 842e 50b1 dda6
00000030: b7b5 3241 2cbe 6928 3842 bc41 1d40 de37
00000040: 612b 9a2f 862d ee41 6541 5937 39b4 7222
00000050: bb42 48b0 414c 6229 7a3e 8b40 ceb2 0b1e
00000060: b9a6 ddae a4bd 7125 4c31 d137 4bb3 6641
00000070: 2aad 3524 1bb2 2c3f 7140 6fb2 0540 50b8
00000080: e040 31a4 7dba e93c cdaa 3032 a9b6 35ac
1.511 0.10657 6.08 -0.1676 1.674 1.888 1.915 -0.1165
0.8774 0.2346 -0.1448 -0.04642 0.1605 0.005005 -0.0977 -0.567
-0.862 1.823 1.582 2.58 -0.1477 0.1018 -0.166 -0.02681
-0.3572 2.598 -1.543 0.03445 3.11 2.867 2.057 0.4917
0.05765 0.1188 0.0863 2.965 2.697 0.4592 -0.264 0.01259
3.365 -0.1338 17.02 0.04205 1.619 2.271 -0.2126 0.0059
-0.02626 -0.10724 -1.41 0.02126 0.1655 0.4885 -0.2279 2.7
-0.0807 0.01643 -0.1908 1.793 2.22 -0.201 2.01 -0.539
2.438 -0.01637 -0.811 1.228 -0.05313 0.1934 -0.4163 -0.06573

depthwise_conv2d_10/y f2 [16]
00000000: f4bc 88c3 d8c8 c2af 28be fcba 54ae 38b4
00000010: 4fb0 cfb9 75b6 28b4 65b6 d3b6 633b d6be
-1.238 -3.766 -9.69 -0.1212 -1.539 -0.873 -0.0989 -0.2637
-0.1346 -0.726 -0.4036 -0.2598 -0.3997 -0.4265 0.9233 -1.709

depthwise_conv2d_2/y f2 [88]
00000000: 47b6 07a9 33b5 dbb2 dd39 b63e 74ae c93c
00000010: 59b2 eb3d 75aa 7d46 312a 5534 6240 8020
00000020: 803a 4432 403b 4e3f 6b37 1abd c0b7 ea3d
00000030: 59b8 42b8 64b6 e8b7 42ad c631 4dba c2b4
00000040: 62b2 6f49 e23c 25ae 8625 ddc0 333b fb3f
00000050: 52b8 61ba fa99 2ebb d6ac eeb4 44a4 5a2d
00000060: b7b2 fb3c 5232 d5a4 5230 97a7 fd32 6fb8
00000070: 4640 17b1 c33d 96b5 4140 7ab5 c125 5324
00000080: f834 2f3a c6b7 62b9 c4b2 d0bc 3d40 8fac
00000090: d1c1 b43f a2be 2db9 38ba c3a4 473d 4634
000000a0: 71bc 67c5 542a 4239 1740 78bb 592b 0ebf
-0.3923 -0.03928 -0.325 -0.2142 0.733 1.678 -0.1008 1.196
-0.1984 1.4795 -0.05045 6.49 0.04837 0.2708 2.191 0.00879
0.8125 0.1958 0.9062 1.826 0.4636 -1.275 -0.4844 1.479
-0.5435 -0.532 -0.3994 -0.4941 -0.08215 0.1804 -0.7876 -0.2974
-0.1995 10.87 1.221 -0.096 0.02158 -2.432 0.9 1.995
-0.54 -0.7974 -0.002918 -0.8975 -0.07556 -0.308 -0.01666 0.0836
-0.2098 1.245 0.1975 -0.01888 0.135 -0.02965 0.2184 -0.554
2.137 -0.159 1.44 -0.349 2.127 -0.3423 0.02248 0.01689
0.3105 0.773 -0.4858 -0.673 -0.2114 -1.203 2.12 -0.0712
-2.908 1.926 -1.658 -0.647 -0.7773 -0.0186 1.319 0.267
-1.11 -5.402 0.04944 0.657 2.045 -0.9336 0.0574 -1.764

depthwise_conv2d_8/y f2 [24]
00000000: e7a8 7138 612d 8524 f42c 2bb2 6bb8 d1b9
00000010: 4f2e 73b8 ffb4 f1ba 762d a622 5035 80b9
00000020: d8af e7b9 bdbc 7bb6 cbbd 7832 8eb1 71a4
-0.0383 0.555 0.08405 0.01765 0.0774 -0.1927 -0.5522 -0.727
0.0986 -0.556 -0.3123 -0.8677 0.0853 0.012985 0.332 -0.6875
-0.12256 -0.738 -1.185 -0.405 -1.448 0.2021 -0.1736 -0.01735

depthwise_conv2d_9/y f2 [16]
00000000: 58a9 5f2a 6134 2abd fab9 e6bd beb0 9238
00000010: 28b5 d8a9 36b4 6237 92b6 7ca2 45bf 44b5
-0.04175 0.04977 0.2737 -1.291 -0.747 -1.475 -0.1482 0.5713
-0.3223 -0.04565 -0.2632 0.4614 -0.4106 -0.012665 -1.817 -0.329

dense/Tensordot/MatMul f2 [16, 16]
00000000: 43bb 4f27 642c 7fb2 ffaa 85b1 8bb3 b839
00000010: 8439 b83a c42a 4eb0 0b28 782e 78b3 2739
00000020: 309f 6338 2d30 cd39 432f 1736 b029 44af
00000030: 35b8 f4b6 c5b0 9b37 a234 a33b 44af a6b1
00000040: 58b8 fbb5 12b8 e4b8 6fb5 83b4 e032 9631
00000050: a0b4 eab5 4bb8 beb5 58b8 8a2f 2cb0 2534
00000060: 37b5 2f35 bdb8 d1b6 00af 35b9 9923 7cb8
00000070: abba 6ab1 4da3 8cb2 739c fcb2 f031 55ae
00000080: afb0 7634 66ac d7b6 4430 4baf aeb2 93b6
00000090: cbae 9ea9 5cb3 f9ad cdac d8b4 20b4 ddb8
000000a0: 1037 83bd d92d ae32 139c 9a2d 9f34 9a32
000000b0: ae3a ccaf 162b 3131 41be 4ab2 da12 a73a
000000c0: 1d31 8035 b533 e9b4 d0b8 07ac dfb8 2d37
000000d0: 8a34 53b1 6338 e3b5 7634 2a2d c4b5 333c
000000e0: d1b1 e733 e836 382d e93b ac3a 5bb5 9a37
000000f0: 4eb3 e5b1 4134 4235 1fac b6b1 86a7 a71b
00000100: eeb4 e438 e3a4 85b1 283d 86b6 4032 01b7
00000110: 88bb df31 cf25 89b5 2636 4b3a 9e30 eeb1
00000120: 9536 64a3 bbb8 51b0 dbbc a3b0 5f31 6a24
00000130: 35bb 58b3 cb2e 52ae bfbd c639 ebb4 bc91
00000140: 5334 2325 22c8 bd2d 74b2 2fbd c438 2a2a
00000150: 7829 8227 3abb 99b1 c434 6930 1fb6 95b4
00000160: 513c 2baf a0b0 e7ac e9b2 f032 c239 46b3
00000170: 1234 5bbd b7a9 a3ba 4234 5aac 3132 abbe
00000180: 8437 d43a 2ea5 c437 f4b5 b8ad e6b1 f336
00000190: a1b6 ccb5 b830 b3b4 e93a f2ba a9b1 f73b
000001a0: 1f38 2731 08b3 c4a4 2835 0331 9f33 ba23
000001b0: 553c 1db9 76b0 19ad 9b30 352c dfb9 3639
000001c0: 1738 8d34 9637 9bb8 572c f6b7 88b4 2caf
000001d0: 05b3 c32f a3b2 b633 8f31 3536 4835 05b8
000001e0: e5b5 eeb5 c6a3 3134 dcaf 90b3 3da5 5130
000001f0: 3634 60b7 879f 162e 9cb8 7732 4eb0 7724
-0.9077 0.02855 0.0686 -0.203 -0.05466 -0.1725 -0.2357 0.715
0.6895 0.84 0.05286 -0.1345 0.0316 0.1011 -0.2334 0.644
-0.00702 0.5483 0.1305 0.725 0.11346 0.3806 0.04443 -0.1135
-0.526 -0.4346 -0.149 0.4753 0.2896 0.9546 -0.1135 -0.1765
-0.543 -0.3738 -0.509 -0.6113 -0.3396 -0.282 0.2148 0.1746
-0.289 -0.3696 -0.5366 -0.359 -0.543 0.1178 -0.1304 0.259
-0.326 0.324 -0.5923 -0.426 -0.1094 -0.651 0.01484 -0.5605
-0.8335 -0.1692 -0.01426 -0.2046 -0.004345 -0.2183 0.1855 -0.09894
-0.1464 0.2788 -0.0687 -0.4275 0.1333 -0.11395 -0.2087 -0.411
-0.10614 -0.04388 -0.23 -0.0933 -0.075 -0.3027 -0.2578 -0.608
0.4414 -1.378 0.0914 0.2087 -0.00398 0.0875 0.2888 0.2063
0.835 -0.1218 0.05536 0.1622 -1.563 -0.1965 0.0008364 0.8315
0.1598 0.3438 0.2408 -0.307 -0.6016 -0.0629 -0.609 0.4485
0.2837 -0.1664 0.5483 -0.368 0.2788 0.0807 -0.3604 1.05
-0.1818 0.247 0.4316 0.08154 0.989 0.834 -0.3347 0.475
-0.2283 -0.1842 0.2659 0.3286 -0.0644 -0.1785 -0.02939 0.003736
-0.308 0.6113 -0.01909 -0.1725 1.289 -0.4077 0.1953 -0.4377
-0.9414 0.1835 0.02269 -0.346 0.3843 0.7866 0.1443 -0.1853
0.4114 -0.014435 -0.5913 -0.1349 -1.214 -0.1449 0.1678 0.01724
-0.901 -0.2295 0.10614 -0.09875 -1.437 0.7217 -0.3074 -0.0007
0.2703 0.02007 -8.266 0.08966 -0.2017 -1.296 0.5957 0.04816
0.04272 0.02933 -0.9033 -0.1749 0.2979 0.1378 -0.3826 -0.2864
1.079 -0.112 -0.1445 -0.0766 -0.216 0.2168 0.7197 -0.2273
0.2544 -1.339 -0.04465 -0.8296 0.266 -0.068 0.1935 -1.667
0.4697 0.8535 -0.02023 0.4854 -0.372 -0.08936 -0.1843 0.4343
-0.4143 -0.3623 0.1475 -0.2937 0.864 -0.868 -0.1769 0.9956
0.515 0.161 -0.2197 -0.01862 0.3223 0.1566 0.2382 0.01509
1.083 -0.639 -0.1394 -0.07965 0.1439 0.06573 -0.734 0.6514
0.511 0.2844 0.474 -0.5757 0.0678 -0.4976 -0.2832 -0.11206
-0.2194 0.1213 -0.2074 0.241 0.1737 0.388 0.33 -0.5024
-0.3684 -0.3706 -0.01518 0.262 -0.1228 -0.2363 -0.02046 0.1349
0.2632 -0.461 -0.00735 0.0951 -0.576 0.202 -0.1345 0.01744

dense_1/Tensordot/MatMul f2 [16, 16]
00000000: 62a4 1cb0 ffb7 2aab 6528 c420 be30 e1b3
00000010: e533 b32a c630 1f3a fd29 582b eeb8 f8ae
00000020: a01f 9633 cdb1 0c32 6db2 7635 32b4 95af
00000030: 75b4 5632 85af b5ac 5eb7 66b3 7e2a b431
00000040: 09b1 66af 2c27 deb5 8c35 3fb1 c835 91a3
00000050: 7328 6535 94be a0b7 6eb1 2c26 51b4 c7b4
00000060: 39b3 f1b7 44ad ac2b 0838 e1a5 d62f 80b7
00000070: 5835 ad24 da30 342e 71ac 6531 9d33 5428
00000080: 91b7 63ab 6135 d0af 7bb3 62c1 8b2e 26b8
00000090: 77b8 02be 842d 1632 3a3a 2dbb 29af 83b6
000000a0: a4b3 7db5 4030 61ae 1e34 d22b d22f 87b8
000000b0: e836 ac1d a134 3d33 9c24 f331 172e 9d32
000000c0: 8a28 c0b9 d634 7031 80ae 8bb2 2a36 c437
000000d0: a1b0 c1aa cdb1 94b4 db3b 9130 0bb6 62b4
000000e0: bdb7 b8b5 59b4 17af e528 8227 d333 ceb3
000000f0: f432 d392 3ead 7931 0ab1 3f31 73b1 8c28
00000100: ebb5 d339 811b deb3 e333 9d26 69b7 cc2e
00000110: 4b3c ae3a 1030 3fac 46b8 27b7 0c31 e031
00000120: b7b8 ff2b bc34 2134 e49d 442a 0129 99b1
00000130: 9816 912e 0c2e fd38 072d e135 0eb1 902f
00000140: 04b0 a5ae 7539 4039 3835 8e27 b8b5 fbb9
00000150: 0535 b025 593c cda8 4732 0436 82b0 cfb5
00000160: 6cb6 97ac 18af 4c38 f7b3 e929 112c 19b6
00000170: bd32 da2d 2a31 8039 462c 8034 68b4 68b7
00000180: 08ae 2e30 292e a8b4 8830 6b3c 8f38 74bb
00000190: f3bf e63b 75a9 832b 54b9 a6b5 e7b3 0033
000001a0: 5db6 4a30 ce2f 2cb7 1331 5f35 40bc e0b1
000001b0: b632 079b 5935 3836 62bb 5db3 59b1 79af
000001c0: dcba 512d 75b1 81af 7132 d02e d22a e3b0
000001d0: 5bae 7630 a635 0b38 a42c 9238 25aa cd34
000001e0: 8bb7 752e 4737 1634 7a36 21b4 46b8 67b0
000001f0: aaad 06b4 ab2c 4839 9eb1 d320 6031 9235
-0.01712 -0.1284 -0.4998 -0.05597 0.03433 0.00931 0.1482 -0.2462
0.2467 0.05234 0.1492 0.765 0.04678 0.05737 -0.616 -0.1089
0.007446 0.237 -0.1813 0.189 -0.2008 0.3413 -0.2622 -0.11847
-0.2786 0.198 -0.1175 -0.07355 -0.4604 -0.2312 0.05072 0.1782
-0.1573 -0.1156 0.02802 -0.3667 0.3467 -0.164 0.3613 -0.01478
0.03476 0.3372 -1.645 -0.4766 -0.1697 0.02411 -0.2698 -0.2986
-0.2257 -0.4963 -0.0823 0.05994 0.504 -0.02296 0.12244 -0.4688
0.334 0.01826 0.1516 0.0969 -0.0694 0.1686 0.2379 0.0338
-0.473 -0.0577 0.3362 -0.1221 -0.2338 -2.691 0.10223 -0.5186
-0.558 -1.502 0.0862 0.1902 0.7783 -0.897 -0.1119 -0.407
-0.2388 -0.343 0.1328 -0.0997 0.2573 0.0611 0.1222 -0.566
0.4316 0.00554 0.2893 0.2262 0.018 0.1859 0.09515 0.2067
0.03546 -0.7188 0.3022 0.1699 -0.10156 -0.2045 0.3853 0.4854
-0.1447 -0.05276 -0.1813 -0.2861 0.982 0.1427 -0.3777 -0.274
-0.4836 -0.3574 -0.2717 -0.1108 0.03824 0.02933 0.2445 -0.2439
0.2173 -0.000833 -0.0819 0.171 -0.1575 0.164 -0.1703 0.03552
-0.3699 0.728 0.003664 -0.2458 0.2465 0.02583 -0.4631 0.1062
1.073 0.835 0.127 -0.06635 -0.534 -0.447 0.1577 0.1836
-0.5894 0.06247 0.296 0.258 -0.005753 0.04895 0.0391 -0.1749
0.00161 0.1026 0.0945 0.6235 0.07855 0.3674 -0.158 0.11816
-0.1255 -0.1038 0.682 0.6562 0.3262 0.02951 -0.3574 -0.7476
0.3137 0.02222 1.087 -0.0375 0.1962 0.376 -0.1409 -0.363
-0.4014 -0.0717 -0.11084 0.537 -0.2489 0.04617 0.06354 -0.381
0.2106 0.09143 0.1614 0.6875 0.0668 0.2812 -0.2754 -0.463
-0.09424 0.1306 0.09625 -0.291 0.1416 1.1045 0.57 -0.9316
-1.987 0.9873 -0.04263 0.0587 -0.666 -0.353 -0.247 0.2188
-0.3977 0.134 0.12195 -0.4482 0.1586 0.3357 -1.0625 -0.1836
0.2097 -0.003431 0.3342 0.3887 -0.923 -0.2301 -0.1671 -0.11676
-0.8574 0.08307 -0.1705 -0.11725 0.2013 0.10645 0.05328 -0.1527
-0.0993 0.1394 0.353 0.5054 0.0725 0.5713 -0.048 0.3
-0.4714 0.1009 0.4548 0.2554 0.4048 -0.258 -0.534 -0.1376
-0.0885 -0.2515 0.07294 0.66 -0.1755 0.00942 0.168 0.3481

dense_10/Tensordot/MatMul f2 [72, 72]
00000000: 73b3 2f39 25b9 63bb 50b8 9d34 c8af e72e
00000010: 5739 71b4 eab9 afb1 dc38 1334 ca3a 27b9
00000020: 1b36 34b7 f1b3 54b7 af29 2034 fe34 c3b5
00000030: 17b8 3231 55b2 a3b9 5aba 3db4 03b8 31ac
00000040: d8b5 9d34 3a34 bd38 9230 b638 573a aeb7
00000050: a1b4 29b8 a53c de35 5e91 4b36 f4b0 6038
00000060: c53a c7b9 4bab 2539 1f3d 2734 81b9 3ab1
00000070: d637 c820 f4b4 d937 6439 a9ba e9b0 802f
00000080: 7b30 67b9 86b0 bab3 d23a 5cb0 60b5 162c
00000090: 6e38 38ba 6534 5236 a1b1 3431 52b4 8eb3
000000a0: 94b7 45b9 4e31 f5b1 47b8 bbb5 8daa b0b9
000000b0: 03bc 9bba 692a 21ab c525 d2b4 f424 86b6
000000c0: 8d38 693e 2b36 72bb 6a38 d138 0224 6838
000000d0: 623a 4138 b6b4 ff2c 6b3d df9f fbb5 deb9
000000e0: 173b 743a 2d3c 3abc 89b9 4c25 4836 fcaf
000000f0: 559b 04b1 8c3a 0eb0 a434 0b37 cfb8 70b7
00000100: b629 f9b3 d1bb 0538 52c0 1c3a 80b6 553a
00000110: 8eac 29b2 f1b5 a2a6 fabc 2735 8135 5839
00000120: 11a6 4fb6 97ba 2933 9a30 1130 8936 4eb1
00000130: 5235 bb38 35b8 b5ba c6b9 0ab7 2639 5ab6
00000140: 87b8 8d35 08b5 40b0 b330 723c f539 f9b8
00000150: a538 87bc f5b4 6a3c 10b7 bab7 842e 9430
00000160: 06c0 6436 0d29 0d33 1cb1 7c38 82b1 94b0
00000170: a2b7 86a3 9a3b 14b6 5db6 1d2f 5e3a 3bac
00000180: 06b9 9ab6 79b9 b025 f7b4 1eb5 77a5 cab4
00000190: 2138 6eb0 8134 5eb6 6a3a 103d 8b38 c9b8
000001a0: 133a 1034 65b5 ffb6 f634 482b ee33 162e
000001b0: a8b6 48bb d6b8 f2bf 34af 462c dd20 433e
000001c0: 2032 7cb4 9e9f c418 4238 8abe 70b8 70b7
000001d0: 133c 723c d2b7 6db8 b3bc 5738 07b5 e7b9
000001e0: 21b6 2c36 4eb8 5834 c33d b0b4 b739 8e39
000001f0: 32b5 d9b6 18b5 e8ba e1b2 5ebb 4fbb 27b5
-0.2328 0.648 -0.643 -0.9233 -0.539 0.2883 -0.1216 0.10785
0.6675 -0.2776 -0.7393 -0.1776 0.6074 0.2546 0.8486 -0.644
0.3816 -0.4502 -0.2482 -0.458 0.0444 0.2578 0.312 -0.36
-0.511 0.1624 -0.1979 -0.7046 -0.794 -0.265 -0.5015 -0.0655
-0.3652 0.2883 0.2642 0.5923 0.1428 0.589 0.7925 -0.48
-0.2893 -0.52 1.161 0.3667 -0.000655 0.3933 -0.1548 0.547
0.846 -0.722 -0.05698 0.643 1.28 0.2595 -0.688 -0.1633
0.4897 0.00934 -0.3096 0.4905 0.674 -0.8325 -0.1534 0.1172
0.14 -0.6753 -0.1414 -0.2415 0.8525 -0.1362 -0.336 0.06384
0.5537 -0.7773 0.2747 0.395 -0.1759 0.1626 -0.27 -0.2361
-0.4736 -0.6587 0.1658 -0.1862 -0.5347 -0.3582 -0.05118 -0.711
-1.003 -0.8257 0.05008 -0.0557 0.02254 -0.3013 0.01935 -0.4077
0.569 1.603 0.3855 -0.9307 0.552 0.602 0.01566 0.551
0.798 0.5317 -0.2944 0.07806 1.3545 -0.007687 -0.3738 -0.7334
0.886 0.8066 1.044 -1.057 -0.692 0.02069 0.3926 -0.12476
-0.00358 -0.1567 0.8184 -0.1267 0.29 0.4402 -0.601 -0.4648
0.04462 -0.2491 -0.977 0.5024 -2.16 0.7637 -0.4062 0.7915
-0.07117 -0.1925 -0.3713 -0.02591 -1.244 0.322 0.344 0.668
-0.0237 -0.3943 -0.8237 0.2238 0.1438 0.1271 0.4084 -0.1658
0.3325 0.5913 -0.526 -0.8384 -0.7217 -0.44 0.6436 -0.397
-0.566 0.347 -0.3145 -0.1328 0.1469 1.111 0.7446 -0.6216
0.5806 -1.132 -0.3098 1.104 -0.4414 -0.483 0.1018 0.1431
-2.012 0.3994 0.03946 0.2203 -0.1597 0.5605 -0.1721 -0.1431
-0.477 -0.014694 0.95 -0.38 -0.3977 0.11115 0.796 -0.0661
-0.628 -0.4126 -0.684 0.02222 -0.3103 -0.3198 -0.02135 -0.2993
0.516 -0.1384 0.2815 -0.398 0.802 1.266 0.568 -0.598
0.7593 0.254 -0.3372 -0.4373 0.31 0.0569 0.2478 0.0951
-0.416 -0.91 -0.6045 -1.986 -0.11255 0.0668 0.0095 1.565
0.1914 -0.2803 -0.00744 0.002327 0.532 -1.635 -0.5547 -0.4648
1.019 1.111 -0.4888 -0.553 -1.175 0.5425 -0.3142 -0.738
-0.383 0.3857 -0.538 0.2715 1.44 -0.293 0.7144 0.6943
-0.3247 -0.428 -0.3184 -0.8633 -0.215 -0.921 -0.9136 -0.322

dense_11/Tensordot/MatMul f2 [72, 72]
00000000: fe39 b42f 0638 2838 96b8 0031 a326 0a31
00000010: 03b1 4c3a d938 5f33 d3ba 5831 7db5 cbb7
00000020: 7732 52b1 8c31 14b0 1d2f e234 50ba 6c29
00000030: 07bd 2d33 f2bf 17a4 f634 502c 00bc 6036
00000040: dbae c731 e9b7 fabd c4ad 59bb dbba d4b4
00000050: e139 c4af d1b4 fb92 fc28 88be cd21 a8b8
00000060: 43a3 9531 b331 c534 bd36 8c38 5ab0 9daa
00000070: 4925 8c34 41b0 6a34 cc38 87b0 e0ac d333
00000080: 22ae 01af c235 b738 c2ad 622f 2db5 f830
00000090: 473a a43a 35b9 ae3c 4e3b 68b4 5bb3 201f
000000a0: e32c 5530 43bc 4ab3 739c 2bb3 b929 24b6
000000b0: 43b4 14b5 efb0 f3af 2aa8 98bb a2b1 41b0
000000c0: 2cac 5b34 d030 ab9a e43b b6b8 80b7 e33a
000000d0: 7da8 572e 6727 8834 153b db21 6b39 2837
000000e0: 8639 cc9f 089c 00b8 19b3 452d ec3c b025
000000f0: f53a 0d2f 0e2e aab8 8da5 88ad f428 5037
00000100: bf2d f436 8831 8338 b935 29aa 412c 3539
00000110: 17af bd39 5531 14b8 1ab0 2ca9 3cb8 e0ae
00000120: 3139 ee35 2636 583b 81b8 412c b939 2d2f
00000130: c6b5 0735 67b0 b230 c4b8 54af 7bbc 8324
00000140: ffa8 ccae 22b4 38ae 12ae 2334 70a5 9c27
00000150: 78ad 1a37 17bb 7a35 c838 8bb9 b5b6 c3b9
00000160: 3c2f f790 9fad dcb5 ecb4 e0ba ceab 0eb4
00000170: 5a35 2a2e bfb3 66b5 822c 02b2 b735 9628
00000180: 23b7 42ad c62d d127 4cb4 f935 c82d 6538
00000190: 522a 4c21 98bb 4bb0 9daa 06ae 8320 cd35
000001a0: 21b7 9534 4a34 a225 77ad bcaa ce38 df2c
000001b0: 72ae 27ae 8938 d9b8 ba34 dab0 de26 d32e
000001c0: 81aa 8139 6e38 272d 26b6 15af 6f3c a2b5
000001d0: 06b8 7bad 0529 152c d1ae 7236 7133 741d
000001e0: dfb8 bb3b 98b7 153c 8d38 39b7 c5b9 b635
000001f0: bf30 57b0 bc30 7634 7ab8 5cb8 0bbc a6b5
0.749 0.12036 0.503 0.5195 -0.573 0.1562 0.02592 0.1575
-0.1566 0.787 0.606 0.2303 -0.853 0.167 -0.343 -0.487
0.202 -0.1663 0.1733 -0.1274 0.11115 0.3052 -0.789 0.04236
-1.257 0.2242 -1.986 -0.01598 0.31 0.0674 -1.0 0.3984
-0.1071 0.1805 -0.4944 -1.494 -0.0901 -0.9185 -0.857 -0.3018
0.735 -0.12134 -0.301 -0.000852 0.03894 -1.633 0.01133 -0.582
-0.01418 0.1744 0.1781 0.298 0.4211 0.5684 -0.136 -0.05167
0.02065 0.2842 -0.1329 0.276 0.5996 -0.1415 -0.0762 0.2445
-0.0958 -0.10944 0.3599 0.5894 -0.08997 0.11536 -0.3235 0.1553
0.7847 0.83 -0.651 1.17 0.913 -0.2754 -0.2299 0.006958
0.07635 0.1354 -1.065 -0.2278 -0.004345 -0.224 0.0447 -0.3838
-0.2664 -0.3174 -0.1542 -0.1242 -0.03253 -0.949 -0.176 -0.1329
-0.0652 0.2722 0.1504 -0.003256 0.9863 -0.589 -0.4688 0.861
-0.03506 0.09906 0.02892 0.2832 0.8853 0.01144 0.6772 0.4473
0.6904 -0.007614 -0.003937 -0.5 -0.2218 0.08234 1.23 0.02222
0.8696 0.11017 0.0946 -0.583 -0.02168 -0.0864 0.0387 0.457
0.0898 0.4346 0.1729 0.564 0.3577 -0.04813 0.06647 0.651
-0.1108 0.7173 0.1666 -0.51 -0.1282 -0.0404 -0.5293 -0.1074
0.649 0.3706 0.3843 0.918 -0.563 0.06647 0.7153 0.1121
-0.3608 0.3142 -0.1376 0.1467 -0.5957 -0.1145 -1.12 0.01762
-0.03903 -0.1062 -0.2583 -0.09717 -0.09485 0.2585 -0.02124 0.02972
-0.08545 0.4438 -0.886 0.3423 0.5977 -0.693 -0.4192 -0.72
0.11304 -0.000606 -0.0878 -0.3662 -0.3076 -0.8594 -0.06097 -0.2534
0.3345 0.0963 -0.2421 -0.3374 0.07043 -0.1877 0.3572 0.03583
-0.446 -0.08215 0.0902 0.03053 -0.2686 0.3733 0.09033 0.5493
0.04938 0.010345 -0.949 -0.1342 -0.05167 -0.0941 0.00881 0.3625
-0.4456 0.2864 0.268 0.022 -0.0854 -0.0526 0.6006 0.0761
-0.1007 -0.0961 0.567 -0.606 0.2954 -0.1516 0.02682 0.1066
-0.0508 0.688 0.5537 0.0805 -0.3843 -0.11066 1.108 -0.352
-0.503 -0.08563 0.0392 0.0638 -0.1065 0.4028 0.2325 0.005325
-0.609 0.9663 -0.4746 1.0205 0.569 -0.4514 -0.721 0.357
0.1483 -0.1356 0.148 0.2788 -0.5596 -0.545 -1.011 -0.353

dense_2/Tensordot/MatMul f2 [96, 96]
00000000: 0830 1dac 04b0 4db1 a2b0 a22d 5caa d5b3
00000010: 7aaa 0fb1 8aa8 f3ac f6a7 18aa 6dac 8b30
00000020: 41ad cdb0 7cae 42b0 63ae 78a5 7833 aab2
00000030: 29a0 d4b2 a92f 9ea7 ab2a 17b3 fcaf 5a30
00000040: b7a8 71b0 6231 ccb2 00b3 28b0 962b d92e
00000050: 8a28 9b2c ca2c b6b2 b72c 1fb2 1230 6e2b
00000060: 86b3 10b2 96ae fdad 061c 21ae 1cae 0828
00000070: 66b4 a32e beb6 9db5 69b0 6932 012d 1028
00000080: fb2e 54a3 b2ad ce30 f9a7 5432 2ea2 34a9
00000090: 4e31 cb28 f627 7fa9 b22b beaf b7b6 9f28
000000a0: 19b2 31b0 95ad 5b30 4e24 3cb2 86b5 e9b2
000000b0: 99b0 69b5 822e 0a2e 21ac 99b0 3ba4 48b3
000000c0: cb26 3137 cfb6 8237 7db7 60ad 622b 3f34
000000d0: 1330 f4ba 0d37 7d3c 7538 7ab1 bab5 1e35
000000e0: 74b4 4c2f f9b5 a19d d738 8136 7a3b 7cac
000000f0: 9629 deb2 38ba 492b e5b0 521b da2a 171e
00000100: 18b5 2ab1 5e36 88a8 9b39 1db4 6f37 71b2
00000110: 4739 71b9 c631 1725 6e2a 17ac 5f35 6e31
00000120: c036 47b2 1d2e eeb8 b9b3 cfb0 25b9 9b30
00000130: 97b0 6131 b435 01b2 3bb0 52ad e135 66b4
00000140: f8ac bf34 00b5 31b1 47bc 01be 5334 93af
00000150: ad2f 1eb5 20b0 3639 b8b8 76ad c634 a0c1
00000160: fe38 5834 dc99 23b6 9b35 f731 46bc 83b3
00000170: c3ae cfb6 3834 ebb3 2236 cdae d42c 5736
00000180: 62b7 5928 bd33 6aae 3833 5236 a438 0a32
00000190: 3733 2d3a 8d29 6a2f d6b9 7b20 28b6 41a2
000001a0: 9cb9 31b3 0738 c5b4 5c3a 4aa6 c2bb 16a4
000001b0: c2b5 8331 d234 a10a f7a3 5aaf 173c ccaa
000001c0: 942e 56a6 a4ae af2f 0bb7 36b5 2b33 7036
000001d0: 91b2 39ae 3da6 04a9 da26 9637 2e32 6eba
000001e0: d1bc b0bb 0338 7620 6435 c430 f633 b3b3
000001f0: ca2f 9f39 93ac f5b9 62b4 9b2d 812d 42ae
0.126 -0.0643 -0.1255 -0.1656 -0.1448 0.088 -0.04968 -0.2448
-0.0506 -0.1581 -0.03546 -0.07733 -0.0311 -0.0476 -0.06915 0.142
-0.0821 -0.15 -0.1013 -0.133 -0.0998 -0.02136 0.2334 -0.2083
-0.008125 -0.2134 0.1197 -0.02975 0.0521 -0.2216 -0.12476 0.136
-0.03683 -0.1388 0.1682 -0.2124 -0.2188 -0.1299 0.05927 0.107
0.03546 0.07196 0.0748 -0.2097 0.07367 -0.1913 0.1272 0.05804
-0.2351 -0.1895 -0.1029 -0.09357 0.00393 -0.09576 -0.09546 0.0315
-0.275 0.1037 -0.4214 -0.3508 -0.1378 0.2003 0.0782 0.03174
0.1091 -0.01431 -0.089 0.1501 -0.03114 0.1978 -0.01207 -0.04065
0.1658 0.03745 0.0311 -0.04294 0.06012 -0.121 -0.4197 0.0361
-0.1906 -0.131 -0.0872 0.1361 0.01682 -0.1948 -0.3452 -0.216
-0.1437 -0.3381 0.1017 0.09436 -0.0645 -0.1437 -0.01653 -0.2275
0.02654 0.4495 -0.4255 0.4692 -0.468 -0.084 0.05768 0.2654
0.1273 -0.869 0.4407 1.122 0.557 -0.1711 -0.358 0.3198
-0.2783 0.114 -0.3733 -0.005497 0.605 0.4065 0.9346 -0.07007
0.04364 -0.2146 -0.7773 0.05692 -0.153 0.003574 0.05353 0.005947
-0.3184 -0.1614 0.398 -0.0354 0.7007 -0.257 0.4646 -0.2013
0.6597 -0.68 0.1804 0.01988 0.05023 -0.0639 0.3357 0.1697
0.4219 -0.1962 0.0955 -0.616 -0.2413 -0.1503 -0.643 0.1439
-0.1434 0.1681 0.3564 -0.1876 -0.1322 -0.0831 0.3674 -0.275
-0.07764 0.2966 -0.3125 -0.1622 -1.069 -1.501 0.2703 -0.11835
0.11993 -0.3198 -0.1289 0.6514 -0.59 -0.0853 0.2983 -2.812
0.624 0.2715 -0.002861 -0.3835 0.3503 0.1864 -1.068 -0.2347
-0.10565 -0.4255 0.2637 -0.2474 0.3833 -0.10626 0.07544 0.3962
-0.4614 0.03397 0.2418 -0.1002 0.2256 0.395 0.58 0.1887
0.2255 0.772 0.04337 0.11584 -0.7295 0.00875 -0.3848 -0.012215
-0.701 -0.2247 0.5034 -0.298 0.795 -0.02457 -0.9697 -0.01596
-0.3599 0.1722 0.3013 0.0002023 -0.01556 -0.11487 1.022 -0.0531
0.1028 -0.02475 -0.10376 0.12006 -0.4402 -0.3257 0.224 0.4023
-0.2052 -0.0972 -0.02437 -0.03918 0.02676 0.474 0.1931 -0.8037
-1.204 -0.961 0.5015 0.00871 0.337 0.1489 0.2488 -0.2406
0.1217 0.7026 -0.0715 -0.7446 -0.274 0.0876 0.086 -0.0978

dense_3/Tensordot/MatMul f2 [96, 96]
00000000: cc27 4a36 4a40 1936 31b8 1931 2b31 a937
00000010: c3aa c734 079e c3af 2730 6f39 e42e 22b7
00000020: 1f38 5aaf ba34 c6b4 b4b7 cc2c 982f 7bb3
00000030: 9b31 f230 1cb2 19a9 0b2c 58b2 bf32 aa30
00000040: 9d28 b134 b037 d7b1 35b4 e52e 6b36 faa4
00000050: 1435 91ac 8034 892d 9f36 e42e ff2b 73b6
00000060: 9cb2 3731 dcb6 72a6 96b2 2aaf 72a9 b52f
00000070: 6e34 ae31 6aaf 112a cbad 032a 7117 c5b5
00000080: 37af a5a4 b4bc 94b3 7fad 92b5 182d 2b2d
00000090: 5b2d eea9 069e 2b34 48b0 4b33 9bb9 7322
000000a0: 54b0 c2b5 63b3 eabe d12c 64bc a02d 50ad
000000b0: 893c 2e29 4a2c 092c 6eac 2e34 e130 81b3
000000c0: 51af 3d35 12bb 6db1 37b4 932f 4d2c a4b1
000000d0: 9531 7bb0 dcb4 23b6 492f 6db9 d6b1 5c39
000000e0: 6bb2 8ab6 d5b1 db34 7eb4 d025 45ac 2d38
000000f0: 032f 26b1 c0b4 7d2c 4bb2 66a4 34b4 7eb2
00000100: 1a22 feb4 f3b8 3b37 3c32 b726 5bb5 8cb4
00000110: 78b4 f7ae 6ebb 46ad 6f32 af30 4ab2 6daf
00000120: c2af 5d36 aa35 9a34 efb0 eb30 aa33 1cad
00000130: 63b4 c530 69b5 1111 fbad 6ba8 042c 1239
00000140: 352d c0ac b2b6 19b5 5929 1fae 4238 b19f
00000150: adad de32 882c 0e35 632c 2e32 a73d 5a2e
00000160: 55a1 7630 e9b5 323b a7b4 47b0 80aa e2b4
00000170: 64ab bdb3 4c30 20b0 fe2e e7b0 6eb7 8ab4
00000180: 04b1 2cb5 e2b8 9632 c038 912c c5b2 c7b3
00000190: 4f31 93b2 afb6 9927 213c 7335 3c34 5db8
000001a0: 22b7 b8b3 6fb4 49ba 2d35 46b0 40a5 ee2d
000001b0: 08ab a231 de30 f5af 9f30 c7ae cd34 bfb1
000001c0: f5b1 f6b6 ce39 2429 98b2 732a 4aba f52c
000001d0: e62d 9bad 21b8 eebd c5b5 6da6 90b7 45b0
000001e0: a82f 5432 f2b5 0cb8 20ae dc31 769d f730
000001f0: 24b8 66b0 59ad 44b0 642e a332 5ca9 5938
0.03046 0.393 2.145 0.381 -0.524 0.1593 0.1615 0.4788
-0.05283 0.2986 -0.005886 -0.1213 0.1298 0.679 0.10767 -0.4458
0.515 -0.11487 0.2954 -0.2983 -0.4814 0.07495 0.11865 -0.2338
0.1752 0.1545 -0.1909 -0.03983 0.0632 -0.1982 0.2108 0.1458
0.03604 0.2932 0.4805 -0.1825 -0.263 0.1077 0.4011 -0.01944
0.3174 -0.07135 0.2812 0.0865 0.4138 0.10767 0.06247 -0.403
-0.2065 0.163 -0.4287 -0.02518 -0.2058 -0.11194 -0.04254 0.1204
0.2769 0.1775 -0.11584 0.0474 -0.0905 0.04697 0.001817 -0.3606
-0.11273 -0.01814 -1.176 -0.2368 -0.0859 -0.3481 0.0796 0.08075
0.0837 -0.04633 -0.005882 0.2605 -0.1338 0.2279 -0.7007 0.012596
-0.1353 -0.3599 -0.2308 -1.729 0.07526 -1.098 0.0879 -0.083
1.134 0.04047 0.067 0.06305 -0.0692 0.2612 0.1525 -0.2345
-0.1143 0.3274 -0.884 -0.1696 -0.2634 0.11835 0.0672 -0.1763
0.1744 -0.14 -0.3037 -0.3835 0.11383 -0.678 -0.1824 0.67
-0.2006 -0.4087 -0.1823 0.3035 -0.2808 0.0227 -0.0667 0.522
0.10956 -0.1609 -0.2969 0.0701 -0.1967 -0.01718 -0.2627 -0.2029
0.01192 -0.312 -0.6187 0.452 0.1948 0.02623 -0.3347 -0.2842
-0.2793 -0.1088 -0.9287 -0.0824 0.201 0.1464 -0.1965 -0.116
-0.1212 0.3977 0.354 0.2876 -0.1542 0.1537 0.2395 -0.07983
-0.2742 0.149 -0.3381 0.0006185 -0.09344 -0.03452 0.06274 0.634
0.08136 -0.0742 -0.4185 -0.3186 0.04178 -0.09564 0.532 -0.00751
-0.0887 0.2146 0.0708 0.316 0.06854 0.1931 1.413 0.09924
-0.010414 0.1394 -0.3694 0.8994 -0.2908 -0.1337 -0.05078 -0.3052
-0.05774 -0.2418 0.1343 -0.1289 0.10925 -0.1532 -0.4644 -0.2837
-0.1567 -0.3232 -0.6104 0.2058 0.5938 0.07135 -0.2115 -0.243
0.1659 -0.2054 -0.4177 0.02968 1.032 0.3406 0.2646 -0.5454
-0.4458 -0.2412 -0.277 -0.7856 0.3235 -0.1335 -0.02051 0.09265
-0.05493 0.176 0.1521 -0.1243 0.1444 -0.1059 0.3 -0.1796
-0.1862 -0.435 0.7256 0.04016 -0.206 0.05038 -0.786 0.07745
0.09216 -0.0876 -0.516 -1.482 -0.3606 -0.0251 -0.4727 -0.1334
0.1196 0.1978 -0.3716 -0.506 -0.0957 0.1831 -0.005333 0.1552
-0.5176 -0.1375 -0.08356 -0.1333 0.09985 0.2074 -0.04187 0.5435

dense_4/Tensordot/MatMul f2 [128, 128]
00000000: f730 55b0 27b1 76af 2626 25af 3d25 43ad
00000010: b9b2 201c 07a7 4132 632b 9bb3 d3ae 982e
00000020: 1b26 1028 87ad be2c 45b4 b02e 70a8 2aa9
00000030: 9920 0a2d 852e c819 7ab4 2eb2 a5b4 7faf
00000040: 7ea2 dfa3 48b0 42b3 29ae 6faa 04b0 722a
00000050: c5b3 56b0 962a d4ab 59b1 222b c7ae ff2f
00000060: 48b0 b729 3bb1 f030 80a8 bb2d 1834 faa9
00000070: 64af 1b2f be30 74ac 2e31 f6b0 a3aa 7030
00000080: 7fb0 9ab4 dfaf cb2c 8bb2 cb30 6bb4 2eb1
00000090: 3fa7 0db1 472d c5b3 7218 7633 26a4 1a2d
000000a0: b7af ada2 542e 3f1d 36b1 8e25 1bad 32ad
000000b0: 092e 3fa9 0bad aaa1 cdb3 1230 4b2b 1bac
000000c0: ba2a 5baf 85b0 b0af adb1 48b4 7bab e027
000000d0: 909d a42c 8929 64aa b91e 27af ea30 632f
000000e0: 83b0 d7af 25a0 dda7 f4ae 23af 10ad 88af
000000f0: 5232 8ab3 9dad 86ac f9b2 6bb4 92b0 362c
00000100: 80b4 36b3 84b6 582e 63a9 83b9 5830 2931
00000110: 98b6 52b5 2cb7 ddb5 6a1f cab1 90b0 32b5
00000120: 7eb6 fe2f 1e1a 31b3 e126 a7b2 6630 86b8
00000130: 9fb5 3830 f9af 36b5 c330 28b3 9eb5 3eb8
00000140: eeb6 3ab6 df2e d8b5 a0b7 fb37 b1b7 2636
00000150: c235 ee31 899f 2ab4 04ba 52b8 21b8 eeab
00000160: d5b5 8db8 afb4 43b5 88b5 73b6 5730 0eac
00000170: 7334 f1a4 20b6 a234 4aad 17b9 3634 11b7
00000180: 3fb7 32b8 5ab5 27b2 beb8 38b8 17b4 51b7
00000190: 70a5 892f 1db9 68ac b6b1 5cba 8cb6 a124
000001a0: 33b0 50b8 39ba 15b3 f8b6 e1b1 1db9 e333
000001b0: 45b2 09b1 16aa 7f28 98b7 82a6 48ad 1db8
000001c0: afb0 7fb8 b224 28a5 89ae 83ac 3b34 41b6
000001d0: b228 15a6 0432 bdb6 50b7 0337 0835 2cb3
000001e0: 32b2 0139 8ab5 4db2 86b5 a62b 3db4 12b0
000001f0: 7d33 84b8 3ab5 79b2 0eb7 7ab1 6db4 47b5
0.1552 -0.1354 -0.161 -0.1166 0.02402 -0.11163 0.02046 -0.0822
-0.2101 0.00403 -0.02745 0.1954 0.0577 -0.2377 -0.1066 0.103
0.02385 0.03174 -0.08636 0.0741 -0.2668 0.1045 -0.03467 -0.04034
0.00898 0.07874 0.10187 0.002823 -0.2798 -0.1931 -0.2903 -0.1171
-0.01268 -0.01537 -0.1338 -0.2268 -0.09625 -0.05026 -0.1255 0.05035
-0.2428 -0.1355 0.05145 -0.06116 -0.1671 0.05573 -0.1059 0.12494
-0.1338 0.04465 -0.1635 0.1543 -0.03516 0.08954 0.2559 -0.0467
-0.1155 0.111 0.1482 -0.0696 0.1619 -0.155 -0.05185 0.1387
-0.1405 -0.2876 -0.123 0.0749 -0.2045 0.1498 -0.2761 -0.1619
-0.0283 -0.1578 0.08246 -0.2428 0.00217 0.2332 -0.0162 0.0797
-0.12054 -0.01304 0.0989 0.005123 -0.1628 0.0217 -0.0798 -0.0812
0.0943 -0.041 -0.0788 -0.01106 -0.2438 0.1272 0.05698 -0.06415
0.05255 -0.1149 -0.1412 -0.1201 -0.1774 -0.2676 -0.05844 0.03076
-0.005432 0.0725 0.04324 -0.04993 0.006565 -0.11176 0.1536 0.1154
-0.141 -0.1225 -0.008095 -0.03072 -0.10864 -0.1115 -0.0791 -0.1177
0.1975 -0.2356 -0.0877 -0.0707 -0.2179 -0.2761 -0.1428 0.0658
-0.2812 -0.2253 -0.4072 0.0991 -0.04208 -0.689 0.1357 0.1613
-0.412 -0.3325 -0.4482 -0.3665 0.00724 -0.1809 -0.1426 -0.3247
-0.4058 0.1249 0.002987 -0.2247 0.02687 -0.2079 0.1375 -0.5654
-0.3513 0.1318 -0.1246 -0.3257 0.1488 -0.2236 -0.351 -0.5303
-0.433 -0.3892 0.10736 -0.3652 -0.4766 0.4988 -0.4807 0.3843
0.3599 0.1853 -0.00736 -0.2603 -0.752 -0.54 -0.516 -0.06195
-0.3645 -0.569 -0.2927 -0.3289 -0.3457 -0.403 0.1356 -0.06335
0.278 -0.0193 -0.3828 0.2896 -0.08264 -0.636 0.2632 -0.4417
-0.453 -0.5244 -0.3345 -0.1923 -0.593 -0.5273 -0.2556 -0.4573
-0.02124 0.11774 -0.639 -0.06885 -0.1785 -0.795 -0.4092 0.01808
-0.1312 -0.539 -0.778 -0.2213 -0.4355 -0.1837 -0.639 0.2465
-0.1959 -0.1573 -0.04755 0.03513 -0.4746 -0.02542 -0.0825 -0.514
-0.1464 -0.562 0.01834 -0.02014 -0.1021 -0.0705 0.2644 -0.3909
0.03668 -0.02376 0.188 -0.4211 -0.457 0.4382 0.3145 -0.2241
-0.1936 0.6255 -0.3462 -0.1969 -0.3452 0.05975 -0.265 -0.1272
0.234 -0.5645 -0.3267 -0.2023 -0.441 -0.1711 -0.2766 -0.3298
